config/fashion_mnist/weights/config_weights_Epoch100.npy (npy, 627328 bytes, 1 tensors)

array f8 [100, 784]
0	0x3f56d08554d3d6d3	0.0013924886764561841
1	0x3f929c11441ae3b1	0.018173475057412684
2	0xbf8947839420226d	-0.012343433340008059
3	0x3f83c7559f98c740	0.009657544072158353
4	0xbf9b7eaecf802939	-0.026850444235642732
5	0xbf92c43b712fae85	-0.018326691420880187
6	0xbf604ce5ed0ddf9e	-0.0019897928945588747
7	0x3f96a62c9bdff458	0.02211827947029507
8	0xbf715d4d78e172dd	-0.004239370942823864
9	0xbf95e016c2e022c0	-0.02136264385629505
10	0xbf83ecb9a9a9d84e	-0.009728861322610662
11	0xbf9ce8c7a7c98c01	-0.028231734863208405
12	0xbf9569cf32a6520e	-0.020911443201457706
13	0xbfa0a1e6f3e1abf1	-0.03248521544522721
14	0xbfa1234ef6d2c03a	-0.033472507123747566
15	0xbfa5389403eefbf0	-0.041447282295386745
16	0x3f955d8cd593cc21	0.02086467794010727
17	0x3f54d3d42246eef8	0.0012712070102755529
18	0xbf93c8d6c4b28863	-0.019320827250915672
19	0xbf99200c3c1a023a	-0.024536315124807674
20	0xbf93698d30051b75	-0.018957334571747936
21	0xbf8c7dd95c15a5f8	-0.013911913035104626
22	0xbfa297ec91b64e78	-0.03631533888542732
23	0xbf970ea0875a2270	-0.022516735326038206
24	0x3f92965d56c04bb7	0.01815172044741661
25	0xbf8b5350fd8e0069	-0.01334250711238401
26	0xbf8f0d16c18b3440	-0.015161683827864647
27	0x3f89bde949b5f863	0.012569258272147893
28	0xbf85e35cde761471	-0.01068756631753784
29	0xbf95ad114713c8b1	-0.021168012583935695
30	0x3f51e330f435ffc0	0.0010917642656238374
31	0x3f677cbc4b464c19	0.002867095720100032
32	0x3fa140b7d48679dd	0.03369688481619779
33	0x3f950c1e2d05e5f5	0.020554038522709168
34	0x3f9a987919de4ce3	0.025972263530616223
35	0xbf89bc3f61ba5f85	-0.012566085023806082
36	0xbf8c8e61157b1380	-0.013943441837349857
37	0xbf98ab8f22d3eb0c	-0.024091946125717675
38	0xbf8d33667a8714f3	-0.014258194555518666
39	0xbfa7033127d9179b	-0.044946228136310405
40	0xbfb2e17558309c6c	-0.07375272181580933
41	0xbfb2334e84ad5e34	-0.0710953782958022
42	0xbfa644524c9b4d13	-0.043490001536748
43	0xbfb25acc1d9eeb12	-0.07169795725978315
44	0xbf8365265e127f8c	-0.009470271821839814
45	0xbfafe371122e5f88	-0.06228211733758743
46	0xbfa09ac5387d4a0a	-0.03243080439155584
47	0xbf8c2db7288b2a97	-0.013759070324700402
48	0xbf88ce9b5cb1818a	-0.012112821356084397
49	0xbf946def8520eb09	-0.019950621128582067
50	0xbfa9845aef36cda9	-0.04983791513532349
51	0xbf80fba45de71d95	-0.008292469134984862
52	0x3f64003bf6f76c75	0.002441517942981581
53	0xbf63a14978f97530	-0.0023962435732715268
54	0xbfa05f854a0b9102	-0.031978764809339935
55	0x3f7e600bdedf0a42	0.007415815705771824
56	0x3f9429a372ce893e	0.01969008815979944
57	0x3f800c4df8721494	0.007835969109019104
58	0x3f98bb871bc07bd1	0.024152861660805606
59	0xbf8adf41501bc80e	-0.01312113786432081
60	0xbf6257a6af62b4a1	-0.002239060932956408
61	0xbf9caf6387203bc9	-0.028012805101805847
62	0xbf817db21705f3d5	-0.008540526702512633
63	0xbf868ddd27006cda	-0.01101277137063621
64	0xbf81b127846731cc	-0.008638676384088571
65	0xbfa7cb8ead4a3ad1	-0.04647489419322926
66	0xbfafdfda58107df3	-0.06225473713879728
67	0xbf877c7302edd280	-0.011467836882482318
68	0xbfaac9fdb9528379	-0.0523223198627027
69	0xbfa6e457b8ce3e22	-0.04471086626938027
70	0xbfaa594095019e47	-0.05146219080853292
71	0xbf9ce8b5ca8a652c	-0.028231468665216017
72	0xbfa663555caeabf0	-0.043726604045637774
73	0xbfa6dcb296460ac7	-0.04465253910440974
74	0xbfaa7d2edb656960	-0.05173632076430823
75	0xbfad7cb60a5c6d15	-0.057592095150733304
76	0x3f71e73e44058b1b	0.004370921349933689
77	0xbf806f5ea885c9d1	-0.008024920957471789
78	0xbf824d2c1a853541	-0.008936256942116418
79	0xbf924e54027573f6	-0.01787692322738007
80	0xbf8f03942c0d0df7	-0.015143544763879453
81	0x3f31d5866e82c4f2	0.00027212650321491096
82	0xbf5468b7294f00ec	-0.001245669239537557
83	0x3fa56ec0efa76728	0.041860608343723904
84	0x3f9c236d64a2d217	0.02747889448865423
85	0x3f807a2e6da0d784	0.008045542450513705
86	0xbf6590606d5504c6	-0.0026323207227113314
87	0x3f8410e716069497	0.009797864303275268
88	0xbf9f083b7d9be18e	-0.030304841558036304
89	0x3f9378487fda6548	0.01901353149751131
90	0xbfa2f1936b671a44	-0.03699932752674731
91	0xbf84ccb1ef004ce6	-0.010156049829709034
92	0xbf980c1d4b0e76a8	-0.02348371286972531
93	0xbfa3d07d9b7b4c52	-0.03870003245324284
94	0x3f7c59c992873b34	0.006921565429776778
95	0xbfaccf45ceccc195	-0.05626886510288213
96	0xbf994dbd3a79b1d3	-0.02471061391263325
97	0xbfa52fa9e47e0910	-0.04137926973545991
98	0xbfaa858cfce4bec2	-0.05180016123847288
99	0xbfac64a0455189d1	-0.055455215894443584
100	0xbfa631b105b61d4a	-0.04334786600798653
101	0xbfafd2148103a954	-0.0621496589172518
102	0xbfacb4487dae670c	-0.05606295141406123
103	0xbf9b836fb57a2440	-0.026868577434047802
104	0xbfa6c990b185a746	-0.044506570501495576
105	0x3f865d4b60879df2	0.01092013252578192
106	0xbfa64acbbb42bed6	-0.0435393968667747
107	0x3f67b7f3ac164109	0.0028953322623196426
108	0x3f770d20c308e698	0.005627754188532251
109	0x3fa39c019db26edd	0.038299608707544876
110	0xbf8c4b27ec75c232	-0.013815223601995805
111	0xbf97b642b3481c05	-0.02315620631454964
112	0x3f8942dbec3c1d79	0.012334554812254638
113	0xbf856ef36147c2b5	-0.010465527921924215
114	0xbfa1f7333adcdbad	-0.03508911222018383
115	0xbf8b17209afa3c47	-0.013227705697572157
116	0xbf9994a22b432a7c	-0.024981054201627093
117	0xbf8b7a89ec6a6085	-0.01341731789334256
118	0xbf8a28b2912ddc01	-0.012772936873927778
119	0xbf982bdb7912085f	-0.02360480238395046
120	0xbfa451ffe1f8ad50	-0.03968810685577273
121	0xbf945440e3b67b8b	-0.01985265149925967
122	0xbfabede3cc30a3e8	-0.05454933040193294
123	0xbfa885bfb6c05fad	-0.04789542299130232
124	0xbf970d1fdea3ca43	-0.02251100345979241
125	0xbfb05dab2dcfe093	-0.06392927044351131
126	0xbfad1405b683d759	-0.05679338314977995
127	0xbfa2105b08728c77	-0.03528103330725057
128	0xbfa7b4ba0426bbf5	-0.04630070973086468
129	0xbf8d019c90dc7f53	-0.014163230105225166
130	0xbfa87ccfea813bc1	-0.04782724130256311
131	0xbf8ea2050f977c9b	-0.014957465685198115
132	0xbfa2210f8d0f5d45	-0.03540848347591433
133	0xbf9b43f136706673	-0.026626366565415126
134	0xbfa03f21df0f6605	-0.031731661299726745
135	0x3f6482b19d8a60ce	0.002503725915016109
136	0x3f972470acfbd03a	0.022599945600589623
137	0x3f4dd877223461f8	0.0009108144480789995
138	0x3f51458cb31e75f3	0.0010541795749995336
139	0x3f9082d15d829c87	0.01612403043023083
140	0x3f8d66a94b26f965	0.014355967145885893
141	0xbf7883938bcd6ad8	-0.005984855987515934
142	0xbf9078eae6c424c9	-0.016086263975954283
143	0xbf6ab7a88656368c	-0.003261403226764886
144	0xbf8bbb78f25799e3	-0.013541169067093633
145	0xbf9652f85d89508f	-0.021800881108291533
146	0x3f57da727999b56a	0.0014558904571474137
147	0xbfa0ae9d91cac1d2	-0.03258221058547729
148	0xbf9788d1479403ca	-0.02298285483721311
149	0xbf99ad19dc36b9f4	-0.02507439047411171
150	0xbf96becb52a77259	-0.02221219722729226
151	0xbf95b53c0a75abe8	-0.02119916738358177
152	0xbfadcd00f7325093	-0.05820467965637124
153	0xbf9921d3228a2f5c	-0.02454309366525763
154	0xbfb17c41cbfaf9a6	-0.06830226163854167
155	0xbfa033eb8e84c57c	-0.03164611925820801
156	0xbfa4d6d93f58c590	-0.04070166490817961
157	0xbfaa21a6bd6d32bf	-0.05103798925720104
158	0xbfb00fdeb2e887b5	-0.0627421557224171
159	0xbfa93aa5e25b555b	-0.04927557361740283
160	0xbfa215578c23a52f	-0.03531907640155862
161	0xbfa85fb0ca877bd5	-0.047605061266714856
162	0xbf968b60bfb65aea	-0.022016059590522476
163	0xbf92e402a7874a16	-0.018447915530325508
164	0xbf73e123a3a09a30	-0.004853381362443218
165	0xbf8f22c18b6d69fc	-0.015203010623442197
166	0xbfa66666ef186341	-0.04375001591342321
167	0x3f923513acd2ae6c	0.017780597136761875
168	0x3f89594f74576cb7	0.012377377260170836
169	0xbf8195736ec31d38	-0.008585836236660968
170	0xbf79cafe5122e763	-0.00629710524133906
171	0xbf99a12697a0bf8c	-0.025028803829797705
172	0xbf587b3271f2fbd6	-0.0014942162159028347
173	0x3f8420b1176e4597	0.009827979590940212
174	0xbf8950b9dddda869	-0.012361003955181542
175	0xbfa8b77cc509142b	-0.048274897625141776
176	0xbf8b467bfb414f00	-0.013318031888196469
177	0xbf9ee44623431e34	-0.030167671110375063
178	0xbf9747106a590c16	-0.022732025614697525
179	0xbfa0918b7c0fd8ee	-0.0323604191725496
180	0xbfa214f642539616	-0.03531617698335425
181	0xbfa340dd02539e77	-0.037604242834103845
182	0xbfb1f9e7ea1c157b	-0.0702195116574184
183	0xbfac4475acb42ed1	-0.0552098058052174
184	0xbfae148518dc8669	-0.058750304493753465
185	0xbfa613d3e1c7f266	-0.043120023070490274
186	0xbfaa836eebdf9997	-0.051784006398338515
187	0xbf9f028d3493993d	-0.030283171018617983
188	0xbf9fe8319d1f6264	-0.031159186568262234
189	0xbfa477460a80bad7	-0.03997248533447866
190	0xbf91799a966609bf	-0.017065444402314386
191	0xbfa0c1a616c2a249	-0.03272742297969395
192	0xbf27d5a179e60c05	-0.00018184276718721817
193	0x3f826dbde75a6301	0.008998378393969999
194	0xbf9e2b03bc990cee	-0.029460962663745364
195	0x3f98d98f2d89c9b7	0.02426742282336544
196	0xbf9925edbbe8c50d	-0.024558748811789367
197	0xbf539975dacb06dc	-0.0011962557720583333
198	0x3f941bb4a307139b	0.019636938524644525
199	0x3f9f9a3143c246db	0.030861634979891455
200	0xbf8660010aaaec6b	-0.010925300729800655
201	0xbf70a1b63a73d29f	-0.00406047041837057
202	0xbfb5a41b2c563148	-0.08453531105459888
203	0xbf7dc60cf77ab25e	-0.007268953944429583
204	0xbfa266eeee5abae6	-0.035941568943021626
205	0xbfaf1851afc282f6	-0.06073241491799834
206	0xbfa3bde954b85fd7	-0.038558284370253375
207	0xbfab8caf98bf10ec	-0.05380772342280857
208	0xbfac6bb55c735f69	-0.05550925019787096
209	0xbfa97093eced7bd5	-0.049687025710902034
210	0xbfa4b37fec696af8	-0.040431974037991425
211	0xbfa1369890c1c01e	-0.03361965910960428
212	0xbfb1b0969fdd2957	-0.06910077479293385
213	0xbfa7d331946d8126	-0.04653315483915525
214	0xbfa408eecc040c5a	-0.039130651859544854
215	0xbfb137c075f487b4	-0.0672569549538185
216	0xbf9e26b405d36776	-0.029444516044214684
217	0xbfa4e2aec757895b	-0.040791951974614014
218	0xbf9db423fe267fdd	-0.029007494341953922
219	0xbfadc9bdab6e881f	-0.058179785896996565
220	0xbfa53a3858137e37	-0.041459809066278934
221	0xbf931084cc27fb5d	-0.018617701492981243
222	0xbf77cab4bf1b326a	-0.005808549920129561
223	0x3f916154baea2b71	0.016972850712174862
224	0x3f70506e1edee542	0.003982954176472932
225	0xbfa6956a90f4a83f	-0.04410870570639291
226	0xbf55fe63a07fc4b6	-0.0013423893851689911
227	0xbf71bf269c08edaf	-0.004332686251071235
228	0xbfa1f09aa3949fe5	-0.0350387882884318
229	0xbf9723b1dd4ec148	-0.022597102291628063
230	0xbfa39bc7905a2b68	-0.03829787861930961
231	0xbfaba9f7838559cb	-0.05403111916045907
232	0xbf95a39f1270d812	-0.021131978512322354
233	0xbfa0ca034ada54c4	-0.032791235816298975
234	0xbfa25706340559c5	-0.03582019219418301
235	0xbfa2f6edbff0f503	-0.037040166549994445
236	0xbf734100de313e3f	-0.004700663938890736
237	0xbfaa1c7a3c9dade7	-0.050998515986829855
238	0xbfab48c85b6e6cbc	-0.053289662514737185
239	0xbfb196c5c6038a77	-0.0687068565780836
240	0xbfb1b1e4bf3e9a59	-0.06912069005066125
241	0xbfb329b8274ad362	-0.07485533675464986
242	0xbfb1b4d8dce18877	-0.06916575806238422
243	0xbfa631014595bdfd	-0.043342628235105686
244	0xbfa03d58c1076693	-0.03171803814229892
245	0xbfa886c7b6347934	-0.047903290740793386
246	0xbfa5830cc72a119c	-0.042015456497242115
247	0xbf7712bccead4c66	-0.005633103874816836
248	0xbf7d520f246b0d56	-0.007158335828253945
249	0xbf985c533f8005da	-0.023789692641008255
250	0x3f9253b09e552130	0.017897376693583655
251	0x3f72b9437c79d37a	0.004571212404347652
252	0xbf7569d5ccff1fe9	-0.0052278853981490925
253	0xbf9d36db3083625a	-0.02852957233048623
254	0x3f56c4b945b6e90a	0.0013896760273000596
255	0x3f82f76adb699461	0.009260973759589843
