config/fashion_mnist/weights/config_weights_Epoch1_100hidden.npy (npy, 627328 bytes, 1 tensors)

array f8 [100, 784]
000000 8b 11 59 b2 52 c6 d7 bf 0c dc 69 fe d9 d2 db 3f
       -0.371479677360434 0.4347443565852138
000010 79 e8 ea 28 62 58 c1 bf a7 85 2c 5d 03 25 d9 bf
       -0.1355097484391228 -0.3928841028119571
000020 7f 2c 0d 56 c4 b6 e1 3f 15 16 53 fd 31 dc c4 3f
       0.5535604172413428 0.1629698264061267
000030 c9 c5 70 b6 29 57 de bf 79 af 55 c8 79 69 d9 3f
       -0.47407000366646607 0.397062726630558
000040 ad b9 53 21 83 20 c0 bf 0f 1e bd 88 5b 35 c0 bf
       -0.12599219443604906 -0.12662834335991177
000050 78 c8 e8 ad 76 af b4 3f 49 23 7f e7 af 16 e2 bf
       0.08080236192543733 -0.5652694245737645
000060 9a 02 0a fb a1 54 a6 bf 15 76 96 f0 87 30 e2 bf
       -0.04361444653932729 -0.568424196145943
000070 13 b8 89 c7 b9 5c e5 3f ab 62 24 0a 03 0d e0 3f
       0.6675690552926902 0.5015883634651649
000080 03 bc 98 51 a5 07 d0 3f 5a a8 92 69 b4 0e c3 3f
       0.2504666611520749 0.14888625292707297
000090 29 39 0b e5 a9 dc d0 bf 25 25 2a 15 64 b5 c1 bf
       -0.2634682404285678 -0.1383481124251286
0000a0 f4 0a db 7a 7c aa ae bf 1a c3 57 7d 8d aa d6 3f
       -0.059894456860566964 0.35415971031675186
0000b0 26 18 35 78 30 f7 a9 bf 6d bb 66 ca 59 ac e4 3f
       -0.050714029954676484 0.6460389092588749
0000c0 1e db 4a 7b 83 9b c1 bf cd 82 02 78 ef fe e0 3f
       -0.13755839843880663 0.531120046991498
0000d0 19 0e 35 99 b6 b0 c5 3f f3 e5 ab bf 78 b0 c9 bf
       0.1694553611833818 -0.20069798811873305
0000e0 a0 72 fd e5 28 f5 da bf ed 0b 63 50 18 20 db bf
       -0.4212133642193212 -0.4238339219120338
0000f0 aa bf 91 17 07 5c f0 bf 36 11 c8 7f 24 75 c7 3f
       -1.0224677010228143 0.1832624076779525
000100 c5 b8 69 06 db 99 e4 bf 19 cd 64 ca 53 4b c7 bf
       -0.6437811970952444 -0.181986306977344
000110 cc 60 a2 6b 3b 06 d8 bf 59 7c f8 72 eb 01 ac bf
       -0.3753803778759106 -0.054702146324637275
000120 bd 1e e5 e1 94 1e d5 3f 55 3a f5 17 49 92 ce bf
       0.3299915510183203 -0.2388392798406637
000130 f2 78 74 a4 37 8f c1 3f 3b a6 05 64 f6 d4 db bf
       0.13718314676311355 -0.4348731972482686
000140 06 cc c4 58 90 11 db 3f 7d 5e ca ed b6 f8 eb bf
       0.4229470126039704 -0.8741106647821223
000150 52 e5 5c bf 6d 37 ac bf 0e 6a 80 19 4d 98 c6 bf
       -0.05511038742992959 -0.1765228628654118
000160 0b 73 44 5e f5 5b e5 bf 1d 6b ff e3 54 e6 76 bf
       -0.6674753991279386 -0.005590755084962121
000170 18 ef 26 5d 8b b3 c8 bf 5f 23 66 97 c6 50 d2 bf
       -0.19297925995294274 -0.28618016037994737
000180 f2 f3 11 52 98 7c d8 3f 2a 68 79 65 1b 5c c1 bf
       0.38260467543278687 -0.13562338309094574
000190 8a 9d cb 7a f3 1f e3 3f 77 73 28 a2 e6 ba b4 bf
       0.5976502798411485 -0.08097688158927761
0001a0 ee 86 17 4b c5 a0 c6 bf 5d 6b 10 71 12 0c da bf
       -0.17678133169743354 -0.40698681870860814
0001b0 89 87 3f 99 ef 09 da 3f de 66 ff a6 d4 ec ec 3f
       0.4068564411701279 0.9039099942849267
0001c0 f2 9e 66 56 df 60 da bf ac 66 bc c2 ec 29 bb 3f
       -0.41216262281021365 0.10610847238822413
0001d0 cc ac a5 9f 5a 07 d6 bf 0e 33 d5 4d a4 2e d9 3f
       -0.3441988524488806 0.3934717903219259
0001e0 58 bc e6 32 6b f1 9c bf 05 a8 64 5f 9e c4 d5 3f
       -0.02826468942810964 0.3401256496023282
0001f0 c5 73 76 1c be 1f d5 3f 6a 05 c1 fb 99 47 d8 3f
       0.33006241588173807 0.3793702086005256
000200 09 af 0e 88 9a ff d0 bf 7d 00 4f 44 37 1d e7 bf
       -0.2656008080182209 -0.7223163923408858
000210 8f 00 da ad 74 04 e0 bf aa 8e c8 ce c4 e5 e3 bf
       -0.500543918184137 -0.6217979468096548
000220 10 91 f0 b4 c6 6d 98 bf de 95 73 07 43 96 e0 bf
       -0.023856262963946995 -0.5183425088441103
000230 21 22 d0 16 93 8f e0 3f d3 4a 80 b9 76 93 e2 3f
       0.5175261922423183 0.5805009482449698
000240 dd 7f 04 3d d9 01 c3 3f b1 68 97 16 e8 d0 ce 3f
       0.14849391440748053 0.24075032332513538
000250 87 af a8 b6 47 0a eb bf 01 ca d1 a2 58 c1 b2 3f
       -0.8450048987919992 0.07326272940716906
000260 95 d7 0f 26 54 29 ed bf db 10 91 a7 a6 e6 cd 3f
       -0.9112950080295713 0.23360140974012364
000270 3d f8 6e 22 af f4 df 3f 05 7e d9 6a 37 14 e3 3f
       0.49930933344501566 0.5962178313165515
000280 19 a8 55 ab 52 43 ce bf 31 a3 84 e8 dd 97 d4 bf
       -0.2364295326800068 -0.32176921564910105
000290 91 ec 02 1a 96 99 e6 bf 52 08 62 74 96 85 dd bf
       -0.7062483318362799 -0.46127854695817405
0002a0 0a ab ed 5f 72 0c c8 3f 80 cf 6b d9 7f b6 c3 3f
       0.18787984546664688 0.15400694004312854
0002b0 7e bd aa 70 ee ee ca 3f a4 a7 05 c0 54 22 f0 bf
       0.21041660786930189 -1.0083816052306043
0002c0 54 44 f8 5b dc ee e8 bf 58 b3 b6 ef e0 3e e0 bf
       -0.7791578098568928 -0.5076756173999497
0002d0 cf 38 31 d4 75 05 e0 3f f2 ef e7 f8 77 59 e8 3f
       0.5006665367489179 0.760921465057889
0002e0 21 21 b0 9a 50 ca db bf 41 20 09 d0 16 97 e7 3f
       -0.4342233191132597 0.7371934951015718
0002f0 e0 a3 93 29 9b dd c4 bf 6b 67 9a aa b9 6c 92 bf
       -0.163012881566174 -0.017992878949918117
000300 36 b8 0e f2 9c 5a e8 3f 64 0b b5 61 7d 26 f3 bf
       0.7610611655889048 -1.1968969170272539
000310 8b db 35 6f 75 65 b2 3f a6 a0 3a 8a 2a 2c 9d bf
       0.07186063733193586 -0.028488793074445205
000320 d3 a8 22 ee 04 ca e1 bf f0 df 6f b8 ee 2a d8 3f
       -0.5559105540353592 0.3776203919546779
000330 87 76 82 54 6f dd d0 3f 94 33 7f c9 2f b5 cf 3f
       0.26351531269924816 0.24771687830653077
000340 7e 8c e6 86 82 92 d6 bf 9c d7 6b 19 48 63 a7 bf
       -0.35269225286373984 -0.045679333785229675
000350 5f 01 4a c3 55 e2 ba 3f c3 13 87 b0 29 cd da 3f
       0.1050160981922139 0.41877214659717427
000360 69 46 de 1f 7e ee 93 3f 2e 77 0e 94 4a 3a ce 3f
       0.019464464850506156 0.23615390996285995
000370 f3 54 bd 90 c5 4d c4 3f c2 8a d6 f3 f3 90 de bf
       0.15862340514528447 -0.47759722530660664
000380 c5 fb dc 33 5a 4c e9 bf 76 ae 1b 68 cc 3c b9 bf
       -0.7905703556970073 -0.09858396093084729
000390 30 1c d4 ac cc 11 92 bf 12 89 e1 f6 06 ac e2 bf
       -0.017646024750345102 -0.5834994146246422
0003a0 1c 69 5f 64 3e 5e d2 3f 6a 97 30 17 9b cc c3 bf
       0.28700218011876344 -0.15468157417597733
0003b0 c8 05 26 81 6d 48 d7 bf c0 c7 af 63 a4 ab cf bf
       -0.36379563915405955 -0.24742560260307123
0003c0 79 9c da fd 9b ad eb 3f 55 2d 74 b7 06 46 b0 bf
       0.8649425466618502 -0.06356851557591388
0003d0 63 bc a0 5c 78 b5 e3 bf fb 30 6f 91 7e 45 d9 bf
       -0.6159021195543456 -0.3948666019685018
0003e0 83 12 e4 3a af 81 de bf e1 b2 8c e0 1a e9 43 bf
       -0.47666531325402434 -0.0006076222644871531
0003f0 df 76 9e 1d 74 fa cf 3f 4b 03 ac 96 44 5a d0 3f
       0.24983073660126018 0.25550951685004425
000400 a4 66 c2 d8 d0 74 cb 3f fe 83 83 a4 00 2d d2 bf
       0.21450243553117787 -0.2839967352466032
000410 cf c4 c8 77 fb 9b e1 3f d7 96 ff 14 36 8a b9 3f
       0.5502908076797669 0.09976518643051278
000420 bd 75 fc 9a 78 12 7b bf b3 a6 49 b3 02 c6 98 bf
       -0.006609412302876758 -0.024192850296833778
000430 4e 5f b5 6a 2b 5b 9f 3f 58 d3 85 e3 8a 08 d2 bf
       0.03062122191235455 -0.281771394910995
000440 7a ff 08 5d 8d db c3 3f ea 0b 34 cd 68 33 eb 3f
       0.15513770144206857 0.8500255592228971
000450 d6 85 00 ff 66 e5 ce 3f 8b 06 22 e7 7b 18 e8 bf
       0.2413758034827384 -0.752988768989057
000460 e2 97 3c 3f 07 fb e9 3f ec e6 40 d9 a2 24 c7 3f
       0.811893104085126 0.1808055458839627
000470 04 57 27 ea e9 c0 a3 3f 7e 51 e1 14 2d dd b0 3f
       0.03858118995019136 0.06587487945336609
000480 f2 41 a5 e3 fe 9b d7 bf ff a2 6d 30 7a 7b c1 3f
       -0.3688962195492699 0.13658072819387
000490 f2 31 52 38 31 6e c2 3f bb 61 9e f9 99 fa bc 3f
       0.1439878010754821 0.11319887489515328
0004a0 5b cd 2d 21 b9 71 d9 3f 8e da 10 89 e1 e3 ad 3f
       0.3975661109936561 0.05837921903769426
0004b0 cc c6 39 2a 58 f9 e0 bf cf fa 78 bf 33 dc d1 bf
       -0.5304375481338979 -0.2790650720452676
0004c0 a1 49 07 f3 14 1d da 3f 84 7e 9f c7 c9 3a d1 3f
       0.40802501424072984 0.2692131471103283
0004d0 59 68 29 87 3c c4 c4 bf d2 09 8a 48 92 11 e4 bf
       -0.16223866080946683 -0.6271449486524097
0004e0 f9 84 5b 2b 99 bb b5 3f 99 c0 b2 80 f2 d1 e2 bf
       0.08489377316029224 -0.5881283296239587
0004f0 69 47 6c ea 41 48 bc 3f f4 9f 10 80 21 76 b9 3f
       0.11047756169526014 0.09945878388009516
000500 f0 93 eb 41 86 79 d0 3f a2 d7 fe b2 1b ca c2 3f
       0.2574172633888443 0.14679285278333248
000510 2a 8a de 76 b6 c9 df bf a1 54 9e a8 2e d4 c3 3f
       -0.496686569293305 0.15491278870891725
000520 ad 72 7d 88 cf 70 ec bf 00 93 63 55 54 19 48 3f
       -0.8887708345242423 0.0007354413781085201
000530 23 e4 e9 b1 09 b0 e1 bf a2 f5 9b 58 42 2f f0 bf
       -0.5527389979243974 -1.0115378819749385
000540 e6 db 64 61 34 95 cf bf 19 74 01 b8 4f fd d5 3f
       -0.24674086337628792 0.3435859009676406
000550 75 a7 49 7f 7d 92 de 3f b7 f1 82 c0 df 69 87 bf
       0.47769105368080683 -0.011432407438740506
000560 83 f8 9b 61 39 a8 d4 3f 65 ea f3 fc 30 f4 db bf
       0.3227675870147168 -0.4367792577974455
000570 31 75 e5 da c7 da bc 3f 0a 52 3e e6 9c 0d c7 3f
       0.11271332830570625 0.18010293238025127
000580 59 ac ef ad ab fc cc bf ea fa 6e 8b 67 2b e0 3f
       -0.22646089547137896 0.5052983973799574
000590 fa 2a 0f 20 f8 8a dc 3f b1 bd 5d 9f 4c 3a b3 3f
       0.44598200922762 0.0751083268239572
0005a0 da 0c 3e 6c 4e 0c c6 bf cc 40 5f d3 36 b0 d9 bf
       -0.17225055966637265 -0.40138025895886353
0005b0 a1 e1 fa 00 a4 e4 ba 3f 9b 36 45 02 5c 7b ea 3f
       0.10505127929616843 0.827558521684938
0005c0 7d 9e a6 e7 01 fc 89 bf 4b 68 15 b1 4d 5f b9 bf
       -0.01268769729797658 -0.09911046574907904
0005d0 8e ba 22 c0 23 c6 ab 3f 11 63 1a 1e 12 22 e1 bf
       0.05424606056600566 -0.5354090297651927
0005e0 ae 9f ec af 78 e6 d1 bf f9 0f 93 d8 d8 98 d3 3f
       -0.27969186000927493 0.3062040438637719
0005f0 e8 d2 91 37 11 df b2 3f af d5 f7 ea ed 8c cd 3f
       0.0737162361782101 0.23086332295467346
000600 e4 42 44 ed 65 63 d7 bf b4 bd 2e 5e b5 e0 d6 bf
       -0.3654417817170226 -0.35746511647718227
000610 8b f9 21 5f e8 37 e7 3f b5 ae 82 37 f0 44 a0 3f
       0.7255746706066913 0.031775957847768245
000620 0d d5 21 31 97 da d8 bf ce f6 7b bc 83 4f d8 bf
       -0.3883417110258314 -0.37985318571723503
000630 67 81 59 77 30 ed e1 bf 5f d0 9a 1e 2b e6 ba bf
       -0.5602037745521046 -0.10507459160982212
000640 ff 24 41 8e 40 da 84 bf 6e 92 e4 e4 2f 49 95 3f
       -0.010181907979261327 0.020786999078284678
000650 b1 92 ee ce 7f 2b cd 3f c6 6d a1 97 e1 27 d9 3f
       0.22788999179933492 0.3930591564910312
000660 a6 7d 51 6b 9c eb eb 3f 5d 08 9d f7 85 6e e3 bf
       0.8725111099301344 -0.6072416149329559
000670 ae 0d 67 60 18 16 e6 3f cb bb c7 c6 33 42 bc bf
       0.6901971705305436 -0.11038516619713261
000680 bf 88 5f 9e 86 35 e2 bf df f1 df b5 2e 32 ed 3f
       -0.5690339177347353 0.9123757889024623
000690 c4 8c 88 7b 2e 7a cf 3f 4b 99 9a c3 7e d5 d7 bf
       0.24591618568329043 -0.372405711192546
0006a0 90 b1 20 91 5c 06 90 3f da 91 1e 03 31 18 d7 bf
       0.01564926753796808 -0.36085152916555574
0006b0 ac be 9e 30 61 8d b0 bf 2c f9 15 39 9f 9d df bf
       -0.06465728222860417 -0.4939954812506524
0006c0 30 98 14 1f 1d 3f c1 3f b1 c8 14 30 fb 15 d0 3f
       0.13473857896423302 0.25134162612369965
0006d0 0a 4a 56 d1 10 2d ca bf 1c a9 f3 03 a2 3b ec 3f
       -0.20450029584442603 0.8822794034179284
0006e0 1a 92 d9 1a 96 64 df bf 23 7f 9d b7 98 66 d8 3f
       -0.4905143034177698 0.381261996566524
0006f0 66 35 5d 05 a9 44 da bf 38 5c 8f d4 0d 39 87 bf
       -0.4104406883605719 -0.0113392906659283
000700 fa 79 b6 b4 d5 d5 e1 3f 1f fc 82 1f 00 0a 99 3f
       0.5573528794810152 0.024452211306876245
000710 c4 a6 89 17 c0 a9 91 bf d5 bd ed f2 a8 f3 cb bf
       -0.017249108730914356 -0.21837341176750039
000720 26 d4 88 fb a8 3c d9 3f e0 39 79 41 57 bf ce bf
       0.3943273979560352 -0.24021425911855854
000730 17 a5 c6 bb e1 ac eb bf 52 67 2c eb e1 8f d8 3f
       -0.8648537318705704 0.3837818905463922
000740 fd 82 0c 47 be 6e 83 bf d8 e1 f2 f7 ca bb ec bf
       -0.009488569777717165 -0.8979239313840095
000750 95 9b 85 6b cc 5a e7 3f 0c c7 14 0d 3d a5 d5 bf
       0.7298338031804287 -0.33821035649735687
000760 78 5e ff 47 ff ad cf 3f 54 11 f8 19 e5 73 dd 3f
       0.2474974729109254 0.4601986650088936
000770 90 67 d4 e3 c4 d4 de bf d7 4a 1e b7 fc 31 d9 3f
       -0.48173639534945156 0.39367597468041765
000780 23 17 fb 1c 68 fd d7 3f f2 62 5a 00 4e 6c e3 3f
       0.3748417170539701 0.6069707877059882
000790 e1 05 e1 80 36 68 c5 3f b3 1e ad 2a 93 00 c8 3f
       0.1672428254405949 0.18751754363824133
0007a0 3c 49 ca 81 ba dd d9 bf 65 fb 30 3a 6b d2 8b 3f
       -0.40415823626348746 0.013584935868605272
0007b0 bd 85 d0 35 42 55 b0 bf 69 ca 7a 39 76 47 4d 3f
       -0.06380094350654182 0.0008935286777698839
0007c0 1d 3d c2 87 ff 0b c4 3f cf 9c 93 0a 22 71 d6 3f
       0.15661615494580242 0.35065508873817647
0007d0 49 24 63 92 d8 1f c2 3f 82 1c 55 05 b6 5f e1 bf
       0.1415968622953037 -0.5429334739827854
0007e0 9a ea 69 25 74 87 d4 bf 34 1b 5e 49 0e f0 db bf
       -0.3207674374931827 -0.43652684368901196
0007f0 bf 16 6f b4 b2 96 d6 3f 0b f8 93 a8 b4 ec e2 bf
       0.3529478799867824 -0.5913947384394772
