config/fashion_mnist/weights/config_weights_Epoch200_100hidden.npy (npy, 627328 bytes, 1 tensors)

array f8 [100, 784]
-0.015689672507598132 0.01355894238510716 0.010707723963894144 -0.001986581904331278 -0.003995310694417872 0.01549948860939203 0.005209019323695108 -0.029111025604879354
0.0013953525967784037 0.020659532567068494 0.008331639397110404 -0.009230380883289042 -0.033127472584567434 -0.0443809151851007 0.006825417953338514 -0.035843501615621796
-0.01863235975149182 -0.03432874588051207 -0.039945264605763704 -0.010470414296464555 -0.011966116690788281 0.0004293725455881613 0.005774024754317208 0.039592742534371214
-0.01100985788061885 -0.005552584753825562 -0.025730919525895946 0.0002391216943774422 -0.022391605992877928 -0.01954307993355185 -0.030046458599376602 0.008999919071988445
-0.004094270597412514 0.008217703240734982 -0.0022478908280220756 -0.022527746291919157 -0.0013717441845058434 -0.04124781513275071 -0.02773246917263538 -0.03853477312342728
-0.052851780136746 -0.06682567159660387 -0.041800245749358284 -0.04517155973781794 -0.058652194097906396 -0.034259010038086034 -0.023798859261709444 -0.03782172562528509
0.007371646400148271 0.0005514989506808848 -0.011347324474453566 -0.0021928983425454126 0.024865327785715586 0.017459495801780467 0.008807811887678542 -0.02687374683846769
-0.0005584868371459586 -0.000864381980317424 0.012611455515698325 -0.002061726922490786 0.011725004566663791 0.0017759546547258744 -0.0055003192168349025 -0.02404352247392711
-0.00047548233286304626 -0.03781452677654058 -0.04665584542432946 -0.049511388649833565 -0.03392416872856674 -0.029258030307423327 -0.047694192896329854 -0.05693834293035158
-0.05046742759769198 -0.03200314534499134 -0.03673859710896039 -0.007009059657729156 -0.03805867928799736 -0.034005253630246465 -0.004261743958435697 0.03297502648050625
-0.0313248590094407 -0.007453532865483901 0.01575891512306273 -0.0035596292610505964 -0.0152529967043043 -0.013942347593904447 -0.011042007941595237 -0.020335701636737456
0.018585466891037364 -0.02267295413070553 -0.03348674053437192 -0.025077119504413558 -0.02224478862957017 -0.00466012283660976 -0.03512152236280441 -0.029421481930828372
-0.05445498440341049 -0.05185262112892112 -0.056243302918879856 -0.020793554704787758 -0.02758979379649431 -0.036739836215684954 -0.05941748302031426 -0.02340263519990441
-0.021681595723239664 -0.03320876027458687 -0.019130649988448902 -0.022429923417067975 -0.020221453149239874 -0.00399494976693819 -0.022815111665174012 -0.025322398016108232
0.0023969325216286917 0.00798862635606099 0.02385088611616161 0.019642395736407275 -0.004165643883342633 -0.006253310917690335 0.00991126966561814 -0.021184980460423154
-0.030208143833930237 -0.04688733238004094 -0.055761373921826174 -0.045394015262714346 -0.034291322764693 -0.049354037816553634 -0.03959777045687559 -0.04339205447859958
-0.04844946428796915 -0.06701392833980396 -0.020456662773972432 -0.02562398299823816 -0.024446315321705523 -0.012907447208616274 -0.01360991072003197 -0.004532315815715902
0.004347012296489385 -0.021736496855414705 -0.002646651158370549 0.007713191039533506 0.004987831520508455 0.010716258965116975 -0.021621517330322006 0.00873494288515894
0.010029444585441652 -0.01597697524610972 -0.03838572101431007 -0.02415516485278341 -0.05699860342930632 -0.053380004045316676 -0.053207923841875296 -0.04263479381626211
-0.024935291095572486 -0.04612799265768699 -0.05143170800838237 -0.055169891979151266 -0.05500685965105662 -0.03611914363060693 -0.026525492542392837 -0.044852729837335
-0.028167046322725837 -0.056248221981790754 -0.01835301513261584 -0.006053536244290392 -0.014917285830437825 -0.006059237886104566 -0.014514858584442743 0.022217979185367748
-0.018971508220991536 0.00270929498198856 -0.006489651758642701 0.006250368517844073 -0.0037991499645925217 -0.038773260916739834 -0.049040791563868855 -0.04235277142139248
-0.019113248061831394 -0.045547683401587456 -0.033808377912140176 -0.016560505044207308 -0.06394541902412165 -0.050053190075220445 -0.033906178025084735 -0.025965435324054063
-0.05722831398633911 -0.058811906507140244 -0.06056865592990686 -0.02259767667310286 -0.04747303342373026 -0.02493296705612037 -0.03225746223154951 -0.02127387347117828
-0.007256093509436675 -0.012430140834737511 0.015231452559291718 0.006784029427394087 0.021515796011570006 -0.015912717682372797 0.014385831508028612 -0.02370996496534529
0.006340206984981579 -0.01720838513229776 -0.021603277117415658 -0.03483300943178772 -0.05149447002204629 -0.01122604516883505 -0.025092140082135752 -0.07509032191325865
-0.03469013662908158 -0.06524209782708282 -0.0462305685860199 -0.056240204613263116 -0.032845518410734784 -0.05682875234328078 -0.06799028916478357 -0.042432108692055395
-0.04228294328350181 -0.04058385788413144 -0.04227287701614437 -0.027725466763029883 -0.04378801655592349 -0.018357347139336497 0.021175878235210353 0.0018259397201372718
0.014989316229471432 -0.0036669723619178855 -0.010715028033581903 0.01937132013502268 -0.007365635965319761 -0.03948423112754729 -0.036336288924347995 -0.007939108745234234
-0.042942720119134865 -0.0425276325317605 -0.04149286584161139 -0.03287997701320509 -0.06814941970222206 -0.057864990264014475 -0.03241107191254207 -0.0535777649799753
-0.05425827226182876 -0.06427208373543282 -0.05364793276142087 -0.05869590013089504 -0.049625069190239825 -0.03718973068825724 -0.03628641520706392 -0.019790350643006188
-0.021834439990299267 -0.0035878175942765955 -0.009531846303694545 0.003772320892429724 -0.016871690125238804 0.007697472031933046 0.014539960560870027 -0.00636952190975713
00000000: 0468 3819 f410 90bf 5129 e670 cac4 8b3f
00000010: e689 ea61 eeed 853f a1ee ea09 2a46 60bf
00000020: b071 510c 635d 70bf 99dd 7425 32be 8f3f
00000030: 0067 3b7a 0d56 753f e832 b4db 47cf 9dbf
00000040: b156 4071 88dc 563f 93a2 e7c2 c527 953f
00000050: e179 dcb5 2d10 813f 24d2 2fc0 60e7 82bf
00000060: 0720 b386 15f6 a0bf a3b7 9266 18b9 a6bf
00000070: 3a07 422e f8f4 7b3f 032b 6d56 145a a2bf
00000080: e6ae 1e7f 5c14 93bf 532e bd91 8993 a1bf
00000090: a940 39aa b473 a4bf 3ec2 d437 8371 85bf
000000a0: fdc4 c6fe b081 88bf 6f9f 850a ad23 3c3f
000000b0: ff02 c7f7 80a6 773f 462a b0fc 7f45 a43f
000000c0: 9636 3f1c 568c 86bf e6af d09e 4ebe 76bf
000000d0: 4d5d 70c7 3459 9abf 69ce d7b6 9757 2f3f
000000e0: 00fe c63d d3ed 96bf fbfb b5e4 1903 94bf
000000f0: e004 2eb4 7fc4 9ebf e48d a5b0 8c6e 823f
00000100: fadc 1165 27c5 70bf b167 5675 71d4 803f
00000110: 8d33 ec32 2b6a 62bf 0c36 4e76 8311 97bf
00000120: a5b0 4c1a 8379 56bf e7a0 0d02 6f1e a5bf
00000130: 1e02 8980 e665 9cbf 36d6 a56c d4ba a3bf
00000140: 9506 7276 630f abbf 0568 0aba 7c1b b1bf
00000150: a4a0 ea80 d766 a5bf 9f04 9107 ba20 a7bf
00000160: 2872 fa0e a907 aebf cbf0 699f 658a a1bf
00000170: 6237 d868 ba5e 98bf e21b 4785 5e5d a3bf
00000180: d00e 4d43 bb31 7e3f 386d 7dfa 4e12 423f
00000190: 9878 1e1c 443d 87bf cc19 4555 d7f6 61bf
000001a0: 7d6c 93e6 4b76 993f d0a7 e4ed e6e0 913f
000001b0: 4121 0e80 d409 823f 0937 2b9f ca84 9bbf
000001c0: ee6e b359 ed4c 42bf 947a 192b f652 4cbf
000001d0: 4885 f5e7 08d4 893f 727a 9236 c1e3 60bf
000001e0: 3530 4679 4703 883f 6289 51ca e418 5d3f
000001f0: 723c 76b2 8087 76bf 121b d37a dd9e 98bf
00000200: 4ff4 c811 4529 3fbf 7a4e a3f7 6c5c a3bf
00000210: 348a 8764 46e3 a7bf 48a8 0f86 8e59 a9bf
00000220: 6063 7736 825e a1bf 9856 432d d1f5 9dbf
00000230: f6cf 658d 5f6b a8bf 1d70 8cc1 0527 adbf
00000240: 2336 17de ddd6 a9bf 5a72 405d b762 a0bf
00000250: 99f5 2ac2 66cf a2bf 9a2e 1720 88b5 7cbf
00000260: c4e6 bd5d 6d7c a3bf 26db 77f8 2269 a1bf
00000270: 7877 ce2e c374 71bf 8613 a348 1ae2 a03f
00000280: cfa5 fed9 cf09 a0bf 0bc3 597e 9887 7ebf
00000290: 25c5 4be4 1a23 903f 2919 6368 1529 6dbf
000002a0: 207e 1690 f63c 8fbf 00f1 8f37 ce8d 8cbf
000002b0: 2f3b ee37 319d 86bf 194e e2d5 e1d2 94bf
000002c0: a45d e991 1108 933f 71f8 fa31 9437 97bf
000002d0: 3cb8 e38e 2c25 a1bf 93ec 9800 d1ad 99bf
000002e0: ea86 ae7e 56c7 96bf 7478 db32 7e16 73bf
000002f0: 4f32 debb 72fb a1bf 9c63 c53a aa20 9ebf
00000300: 35d2 3b12 86e1 abbf 15d3 eb3f 6d8c aabf
00000310: 28ac 4f15 eccb acbf 8bd7 b2d5 e74a 95bf
00000320: 26c0 3cb8 7f40 9cbf 7a76 0356 90cf a2bf
00000330: 8209 c4e4 f76b aebf 4a94 4b43 dcf6 97bf
00000340: f9c2 3942 b333 96bf 32de a316 bd00 a1bf
00000350: 77d9 3430 fc96 93bf 06c4 1cae def7 96bf
00000360: a977 d0bf eeb4 94bf af12 9229 025d 70bf
00000370: 7c77 d339 d85c 97bf 1b88 575d 1dee 99bf
00000380: 66ce 5059 bba2 633f 3393 8347 575c 803f
00000390: 64ec 65df 5d6c 983f e83a 36dd 221d 943f
000003a0: 118c ee83 fe0f 71bf 0c96 215e 129d 79bf
000003b0: 2ef7 9a18 5c4c 843f 3dc5 f9f8 83b1 95bf
000003c0: a4be 5b37 e2ee 9ebf 9f81 56ce 9d01 a8bf
000003d0: 68a0 bf3a c18c acbf 5e97 f965 e23d a7bf
000003e0: 1a33 9fdb a18e a1bf 8afe b1b4 ee44 a9bf
000003f0: ebad 36b2 2846 a4bf ab9e c8bd 7b37 a6bf
00000400: c147 4041 5ece a8bf e48f 9826 d327 b1bf
00000410: 89e6 6566 97f2 94bf 53fd e163 2c3d 9abf
00000420: a9f9 4173 7408 99bf 4d3a 163d 386f 8abf
00000430: d958 8d4b 83df 8bbf 8b1f 4243 7a90 72bf
00000440: 8f34 613a 2cce 713f 6894 7e9c 1742 96bf
00000450: 9872 6905 6eae 65bf 8c98 33f4 dd97 7f3f
00000460: b1fc 22d4 1e6e 743f 463d 53ee 67f2 853f
00000470: ba65 4b77 f323 96bf 2f88 3130 a0e3 813f
00000480: 08a0 ee43 518a 843f d825 afa8 445c 90bf
00000490: 5599 c710 4ba7 a3bf 11ed 49ac 21bc 98bf
000004a0: d407 4bc3 eb2e adbf 781c 45b7 9f54 abbf
000004b0: 6aec 93a9 113e abbf ff9f 394a 3ad4 a5bf
000004c0: c63e 160f a388 99bf 832f ca97 169e a7bf
000004d0: 6031 bfbf 4155 aabf 0572 8c63 3a3f acbf
000004e0: f88e 83ee db29 acbf d953 4e59 357e a2bf
000004f0: d062 ebab 7f29 9bbf 6e4a 93df eff6 a6bf
00000500: e5c4 1f7b d2d7 9cbf b968 bd23 91cc acbf
00000510: 713d 1cff 21cb 92bf 002c 1cc3 97cb 78bf
00000520: 7c65 4b36 f48c 8ebf b7b9 f348 92d1 78bf
00000530: e4f3 6857 f7b9 8dbf e8fc ef57 4fc0 963f
00000540: 72b6 755d 446d 93bf deb0 f8aa cd31 663f
00000550: 8d83 0da1 e494 7abf d912 f485 fc99 793f
00000560: 077f 371b 651f 6fbf 117f 31bf 16da a3bf
00000570: 3ea0 dfe7 df1b a9bf 5fb8 4c30 43af a5bf
00000580: ee33 625d 6c92 93bf 539c 3ca5 0652 a7bf
00000590: 6d49 edea 544f a1bf d0cb 47ae 3cf5 90bf
000005a0: c807 701b ba5e b0bf 6df9 dd5c 92a0 a9bf
000005b0: 2a0c 808b 265c a1bf a640 2cde ae96 9abf
000005c0: d2fd f391 074d adbf 288d 201e 981c aebf
000005d0: 8a64 c3d8 da02 afbf 3f32 1b69 d823 97bf
000005e0: 5661 feab 624e a8bf 23a4 6418 0788 99bf
000005f0: 8744 acd2 0c84 a0bf 6595 457b d1c8 95bf
00000600: 7cb0 1dc5 90b8 7dbf 527f f542 f974 89bf
00000610: c9e0 e6f4 aa31 8f3f 7d82 6908 92c9 7b3f
00000620: 924f dea0 3c08 963f 8224 2568 6c4b 90bf
00000630: 336e d29e 5176 8d3f 243c 76d0 6c47 98bf
00000640: dbe6 675a 30f8 793f 0bd6 702d 139f 91bf
00000650: aea9 d262 2b1f 96bf 055d a9d8 a1d5 a1bf
00000660: 1bce 56b1 7b5d aabf f294 e846 aefd 86bf
00000670: b75e 2804 c1b1 99bf 2412 dd8c 1e39 b3bf
00000680: 6da0 a1d4 e7c2 a1bf 7a60 7dc4 b4b3 b0bf
00000690: ac0c 4e78 88ab a7bf 8791 111f 84cb acbf
000006a0: fedd c9b6 20d1 a0bf 31e1 9281 a818 adbf
000006b0: 3988 68c4 cf67 b1bf a2f0 434e a9b9 a5bf
000006c0: 529b 2925 1ca6 a5bf f138 b74c 68c7 a4bf
000006d0: 5397 9560 caa4 a5bf 9ddf 0d94 1064 9cbf
000006e0: c4f8 2006 626b a6bf ac48 6bb6 44cc 92bf
000006f0: 16ee ef21 21af 953f d22c 7ad8 8bea 5d3f
00000700: 09b9 f5f7 b7b2 8e3f 982e d5cb 320a 6ebf
00000710: f0f3 d6b7 c2f1 85bf af50 d749 13d6 933f
00000720: cd58 5dd9 6d2b 7ebf 1011 cdf2 4637 a4bf
00000730: 0a19 2d89 ab9a a2bf 5f81 5c23 6142 80bf
00000740: 69a3 0695 96fc a5bf 3fe9 cc8d 2ec6 a5bf
00000750: e133 9d8b 8d3e a5bf 9d0d eef3 a4d5 a0bf
00000760: adc7 dc88 3d72 b1bf 9fdb 88e1 7aa0 adbf
00000770: 5a0c c91b 2f98 a0bf 1977 c378 8b6e abbf
00000780: 5ed5 cd81 bdc7 abbf 4980 b0a1 2274 b0bf
00000790: 8fa7 6ae9 bd77 abbf 5865 f196 630d aebf
000007a0: e5b6 7702 7568 a9bf 8d31 1b4a 880a a3bf
000007b0: 05f3 340d 2294 a2bf 88ff 26f3 eb43 94bf
000007c0: cf3e bd76 c45b 96bf c5e2 67e7 3264 6dbf
000007d0: ccaf 28c1 6e85 83bf e2b8 9d5b 21e7 6e3f
000007e0: fdbb 43f5 cf46 91bf 7b74 396a 6287 7f3f
000007f0: fba5 c078 20c7 8d3f 6c6e b284 ed16 7abf
