config/xor/weights/config_weights_Epoch200_100hidden.npy (npy, 1728 bytes, 1 tensors)

array f8 [100, 2]
-1.0799556520743983 0.5085659954836762 -0.6396822412345639 -0.05162788179660429 0.3550167653379768 0.7375732912767325 -0.9569795592936006 0.4581248651776231
-0.12883897001095196 -0.33776424247277415 -0.659462011572297 -1.52832798323467 -0.2972209443006111 0.34159196135558767 0.09840449387811359 1.1613039230474045
0.0004381865935159858 0.7155263105257971 -0.8746650867305703 -0.5372504308030858 -0.09874840159263405 -0.4847913798195533 -0.4346271940123144 1.2823560331650614
-0.8000407338581967 -2.3616338848662477 0.5061608245970438 0.9789546155101051 0.033706596501548884 -0.24056026326917584 -1.8298738298818336 -0.1972433113461411
-0.2321468876118867 0.7144863986433831 -0.38150780631633174 0.7026908652981758 -2.6809866720414104 0.7337625300267431 0.4118933592046497 -0.9126037146219027
-1.6586956800241308 -1.0714010442372393 0.19533600447284882 0.4812888737792938 -0.9496282012920342 -0.3825363535263966 0.05308852982548676 -0.36716094157696294
0.5448175966712183 0.8011155502027318 -0.010134253886465425 0.3367350828600951 0.5339007158870228 0.4396290276757425 -0.37661008199536894 -1.3899665681133837
0.35006618811416573 0.5902333275290176 -0.0026989113401766377 1.1889815603733886 -0.16392438304370935 0.06688331556360512 0.55634097516998 0.9425420906976133
0.9711867458188249 0.4459876196749494 -1.4318475498122434 -1.3415186284975567 1.111227106440343 0.12285862590256127 0.7176504564328569 0.7007605832592977
-0.20041192884483042 -0.3127128813250915 0.6907647726746661 0.8270450247946106 0.545194517756156 0.7481319525198727 -0.9715853168859593 0.982865153938815
0.3833484452887309 -0.6064319088551307 -0.9830977661463398 -0.32172883815723835 -0.2751233275341065 0.18149893768762781 0.9274295249474792 0.5282867992004587
0.975984087665567 -1.2631502307310507 0.04255235570262919 -0.5429885153524596 -1.141847186916174 0.0700671213250236 -0.46134207391031595 0.46956651294862384
1.1424482781737118 0.018345827422958618 -0.7724508267179867 0.5729873248866839 1.2632479470713798 -0.8878074440844769 0.09465629053907264 0.3712060413027341
0.4271973847031034 0.026596780086046806 1.2033768978192683 -0.3448424003196975 1.137408645962591 0.0408626473009102 0.5882387887481508 0.6442849632830008
-1.104546139130587 -0.07482296702472276 0.2770720608079037 -1.400741456183712 -0.5745263015172214 1.0819246292300346 0.6045648292881778 -0.8754936529560271
0.4991762779104607 -1.4176934290923477 -2.4672590480154195 1.1436616950136584 0.21749425082124818 -1.024575627228787 1.2727371530211553 -1.0693944306402365
-0.9853352334781289 -0.7804615124955551 0.4302115441444832 -0.3265537170917924 -0.22388289893353508 -1.97182699535127 0.44931584119120477 0.33128674890515386
-1.2897212044774156 -1.1051208204006442 -0.2959647400728882 -1.3334178893148323 1.0761735969111457 0.21974329052861968 0.18443956479851475 -2.262482597609317
0.7516881144328104 0.19082067200628697 -0.08310466429766634 0.028333845374302787 0.4367887111307348 0.8728037273213922 -1.282424629671113 1.338088234460129
0.2754469559049878 -1.4129401723510702 0.8363753477871485 0.6577221366335048 0.27957474972153395 0.39884617575249526 0.7780393918520575 0.7307140786076235
-1.916892432479493 -0.3688993359820061 -0.2679425271827258 -0.823485538428148 -0.06914549822435666 0.5612581690266832 0.22722560213490986 0.6957049695379838
-0.09538808404148393 -1.4631346149904765 -0.7053700103807502 -0.03902579479368326 -0.04566781500717136 -0.5577271031329458 -1.4081186748445418 0.3267613436808171
-0.28616398603267706 0.07772736748740736 0.32465988781057814 1.084309683855416 -0.7133681792672254 1.3141495014966131 -0.2461946362698945 -0.41363994794893627
-0.360948616136661 -2.2295692253815034 -0.3409933521189886 -0.2565418687283776 0.4390207987070101 1.0234985429541354 -1.6971693726843893 0.4288934249292727
-0.4630612677365641 0.5439243328086171 -0.9528901400982451 0.8393098692251473 0.1913683838832238 -1.51004962736746 0.6541320036690587 0.8623369491090139
00000000: 69a3 ec93 7f47 f1bf ebb8 ce31 2c46 e03f
00000010: e3e6 3de4 4678 e4bf 639f c13f f86e aabf
00000020: dd21 2a3d 98b8 d63f 06f9 8d4d 339a e73f
00000030: 8268 c398 939f eebf f806 5bf4 ea51 dd3f
00000040: cedc 529d cb7d c0bf 1e71 cbe9 ed9d d5bf
00000050: 5509 9513 501a e5bf 69df 180b 0874 f8bf
00000060: 6c45 ddfe aa05 d3bf d651 a687 a4dc d53f
00000070: ea65 fc72 0931 b93f 1a48 236c b394 f23f
00000080: 73d5 b416 8db7 3c3f cb58 e46e 97e5 e63f
00000090: e6be cea2 41fd ebbf 0ff5 c1d0 2731 e1bf
000000a0: 2d65 5f43 9347 b9bf e34a 6d6c d206 dfbf
000000b0: 7e0c 0f94 eed0 dbbf 0e5b 84c2 8784 f43f
000000c0: 0271 6c06 ef99 e9bf f901 654e a0e4 02c0
000000d0: 6b24 852f 7832 e03f 014b 3ca1 9853 ef3f
000000e0: e769 44b3 fd41 a13f 46a8 babf adca cebf
000000f0: 4061 f2c7 2947 fdbf de0f cbd1 443f c9bf
00000100: 8ba3 143d fdb6 cdbf 5886 7394 12dd e63f
00000110: bc07 d3b7 9f6a d8bf 58ea b48d 717c e63f
00000120: 1970 eb23 a972 05c0 b1d7 af8e fb7a e73f
00000130: a94e cef6 755c da3f 474b 90b4 0c34 edbf
00000140: 9f85 3b7b 048a fabf 1763 de6b 7524 f1bf
00000150: dc99 782b c500 c93f 25e3 33d9 6fcd de3f
00000160: 2f13 7dae 5a63 eebf 7053 fbc1 797b d8bf
00000170: b44f c976 6b2e ab3f 8b43 1c9b 907f d7bf
00000180: 589f ff4f 256f e13f 4a02 0e14 bda2 e93f
00000190: d805 1888 44c1 84bf 8632 134e 118d d53f
000001a0: ca76 41f4 b615 e13f 7e55 0fca e122 dc3f
000001b0: 2ee5 602c 611a d8bf 1249 8995 4d3d f6bf
000001c0: bbaf 5803 7c67 d63f 67e2 d700 31e3 e23f
000001d0: 068b 1bfe 061c 66bf b09c 5587 1106 f33f
000001e0: 5f48 1864 79fb c4bf 3565 fed4 431f b13f
000001f0: 39f4 b896 8bcd e13f 77ca d407 4e29 ee3f
00000200: 7137 f339 f613 ef3f d22f 3ba8 0f8b dc3f
00000210: 31d2 f4f9 d8e8 f6bf cff2 c53c dc76 f5bf
00000220: 9370 0913 96c7 f13f a272 48b4 a973 bf3f
00000230: c1d5 0a17 fef6 e63f 1196 6d75 a16c e63f
00000240: 25f4 0e1c 19a7 c9bf 9111 95e3 7c03 d4bf
00000250: e7ba 7bb9 be1a e63f defe b920 2777 ea3f
00000260: eb13 f7c5 3b72 e13f 994b a56b b2f0 e73f
00000270: 5791 2917 3a17 efbf 6972 919f a173 ef3f
00000280: ee33 dfea c788 d83f 9213 f9e3 e367 e3bf
00000290: 5ed0 4b72 8975 efbf c52f 848d 3497 d4bf
000002a0: 340b 88df 9e9b d1bf ec44 d070 5b3b c73f
000002b0: cfd0 dfae 80ad ed3f 042f afb7 b9e7 e03f
000002c0: 8a14 3efb 423b ef3f a4cb 2e04 dd35 f4bf
000002d0: 349a 3820 6cc9 a53f 685b 7173 2960 e1bf
000002e0: 625a 4d8e 0145 f2bf baa7 9d3a ebef b13f
000002f0: fbab ede7 a086 ddbf 764f 1ab4 600d de3f
00000300: a90a 82d8 7747 f23f f7db 32a3 3fc9 923f
00000310: 89b3 d0cb eab7 e8bf 8e25 ad83 e955 e23f
00000320: 4a92 b67a 4336 f43f 259f 2f28 eb68 ecbf
00000330: 8fda 3908 653b b83f 7943 defb d6c1 d73f
00000340: cc23 0fb3 3357 db3f db09 98b2 2f3c 9b3f
00000350: c054 4e22 0841 f33f 646c e9db e511 d6bf
00000360: 318d 8968 d332 f23f e61e 92eb f2eb a43f
00000370: c82e fd26 dad2 e23f 905c d37f fb9d e43f
00000380: b0d2 8792 38ac f1bf 0562 5c14 9927 b3bf
00000390: 8a89 f373 8cbb d13f 0b5e 87df 6f69 f6bf
000003a0: 67aa 76fb 8462 e2bf 927a 3433 904f f13f
000003b0: 7258 4357 9858 e33f 9ca7 e943 0b04 ecbf
000003c0: b81f 240f 81f2 df3f aa4a 1b4e dfae f6bf
000003d0: fce3 cf4f f2bc 03c0 6e58 9c34 704c f23f
000003e0: 3432 2c03 dad6 cb3f 099f b369 a964 f0bf
000003f0: 8514 0aa2 215d f43f 5dfd a155 3d1c f1bf
00000400: a452 6cc1 dd87 efbf 3790 fe6b 8af9 e8bf
00000410: f194 1d00 9688 db3f 9af9 d28f 41e6 d4bf
00000420: 78cf 86e0 31a8 ccbf 5875 a676 9a8c ffbf
00000430: cb6b df3a 97c1 dc3f c854 0956 cd33 d53f
00000440: fc02 a3b3 b2a2 f4bf c6fd 5b2b 93ae f1bf
00000450: e475 d817 16f1 d2bf 0823 28ff ad55 f5bf
00000460: 3ad5 38ce 0138 f13f 12fd 2a53 8c20 cc3f
00000470: bcf4 7235 b79b c73f 5802 e479 9019 02c0
00000480: 87fc 883b d40d e83f ad78 d5d0 cf6c c83f
00000490: 85b4 4de7 5846 b5bf d29c 022d 8c03 9d3f
000004a0: 4262 64a3 58f4 db3f 5483 1515 02ee eb3f
000004b0: 835b 40b0 cf84 f4bf bab2 6235 cf68 f53f
000004c0: 6242 d944 eca0 d13f 3c3d 7727 679b f6bf
000004d0: 4ea5 bd3b 96c3 ea3f d546 564b 0f0c e53f
000004e0: 10d9 b57d 8de4 d13f f476 3f1c b286 d93f
000004f0: 5b23 e0dd b2e5 e83f a916 cb7d 0262 e73f
00000500: 6030 3766 97ab febf e8c3 e3f5 0b9c d7bf
00000510: 0446 dd69 f825 d1bf 1fe4 0858 fe59 eabf
00000520: 7f0b 8af5 84b3 b1bf 63a3 12b1 d3f5 e13f
00000530: 45de fd80 ba15 cd3f f491 7a11 3743 e63f
00000540: c9e2 627d 5a6b b8bf 7079 90d7 ff68 f7bf
00000550: 9b43 c520 6492 e6bf acb5 ad60 30fb a3bf
00000560: 3604 df97 c561 a7bf f28f 8182 e6d8 e1bf
00000570: b381 9572 a787 f6bf 2a31 2d69 a8e9 d43f
00000580: 116a 53c0 8250 d2bf 96d2 5cd5 f0e5 b33f
00000590: ab0b 1e44 3ac7 d43f 6052 6e1c 5559 f13f
000005a0: abb6 fe80 e9d3 e6bf f6b8 afa0 c106 f53f
000005b0: 7d6a 9d4b 4e83 cfbf f3a0 30b0 1379 dabf
000005c0: 8bfa 7539 c819 d7bf f073 d963 28d6 01c0
000005d0: 3649 e0c7 d5d2 d5bf 108f 0f96 2e6b d0bf
000005e0: 5177 2db1 ea18 dc3f dadd 1702 4060 f03f
000005f0: 923c 7712 9b27 fbbf 219a 6268 fd72 db3f
00000600: 0e43 3eba cba2 ddbf 132c 9d00 d467 e13f
00000610: e9e3 8c76 137e eebf 8206 f15e a0db ea3f
00000620: 2627 225b c27e c83f 6915 4ecc 2929 f8bf
00000630: 61d1 603d a6ee e43f bbc7 51a8 4398 eb3f
