config/mnist/weights/config_weights_200epochs.npy (npy, 627328 bytes, 1 tensors)

array f8 [100, 784]
2.5e-323 2.5e-323 2.5e-323 -2.5e-323 2.5e-323 2.5e-323 2.5e-323 2.5e-323
-2.5e-323 2.5e-323 2.5e-323 -2.5e-323 -2.5e-323 2.5e-323 -2.5e-323 2.5e-323
-2.5e-323 2.5e-323 2.5e-323 -2.5e-323 -2.5e-323 2.5e-323 2.5e-323 -2.5e-323
-2.5e-323 2.5e-323 2.5e-323 -2.5e-323 -2.5e-323 -2.5e-323 2.5e-323 -2.5e-323
-2.5e-323 2.5e-323 -2.5e-323 -5.040549746630003e-300 -2.5e-323 -2.7841116849154926e-269 -1.3545774159300216e-268 -2.985988644082967e-06
-0.0002684866236224005 -0.00045148348886632104 -0.00021118835886053082 -9.34042320458877e-05 -1.235097283251407e-05 -2.0952874107073154e-220 -3.0638635714809806e-300 -2.739335842418093e-299
-1.7696594380223096e-299 -2.5e-323 2.5e-323 -2.5e-323 2.5e-323 -2.5e-323 2.5e-323 2.5e-323
2.5e-323 2.5e-323 -2.5e-323 2.5e-323 -2.4551390767285906e-45 -3.5882801890648245e-45 2.5e-323 -1.0190976476918637e-13
-1.2189395986708106e-10 -7.231511145535882e-09 -1.3439148107454176e-07 -0.00015829613037626977 -0.0017298811546669277 -0.003928650506823394 -0.0030490130692237476 -0.0014019041684129158
-0.000669787618317121 -0.00031948409729632636 -2.136390004050002e-05 0.000595341258276455 0.00037135147860964477 -2.03e-322 -3.5e-323 -3.5e-323
2.5e-323 2.5e-323 -2.5e-323 2.5e-323 2.5e-323 2.5e-323 -2.5e-323 -2.5e-323
-1.6052832424763722e-45 -2.3607106507005452e-45 2.5e-323 -5.38665899494272e-13 -9.348163825833846e-10 -1.0278496178767383e-08 -7.303319821182375e-05 -0.0006628726734197061
-0.004442640686389714 -0.00793797789967354 -0.00660657173344308 -0.002651079589752054 0.00028749024893265395 0.0013616485035528212 0.0006007862606121221 0.0008508064632026174
0.0002750384694595078 -0.0002857966856643125 -0.00027721304698925624 -2.335113348471096e-08 -1.4523055266807013e-10 2.5e-323 2.5e-323 2.5e-323
-2.5e-323 2.5e-323 2.5e-323 -2.5e-323 2.5e-323 -9.412838265552338e-130 -1.4119257398328357e-129 2.3981987179046143e-192
-5.687705395365343e-10 -8.964597115945137e-05 -0.00030871281855371054 -0.0006055929260085617 0.002649002225308082 0.005501811473055532 0.0011884391807078943 0.0022363336730981567
0.000565063998565646 0.001427983185789572 0.004358924732986878 0.003942366509484673 0.0040233375785091365 0.0030097531467979718 0.0009824723143508325 -0.0005283856751361449
-0.00022443638069389633 -3.099226210543349e-05 2.5e-323 2.5e-323 2.5e-323 -2.5e-323 2.5e-323 -2.5e-323
-2.5e-323 -7.53027061244187e-129 -8.604441619830541e-22 -0.00011364260068592939 -0.00046723674444119917 -0.0007685146888645148 -0.0008109627955564554 0.010188008656205576
0.037092865510350896 0.048949150980794574 0.02908508193719858 0.00879691562840134 -0.0003197181343175838 -0.0014045103519864147 0.004702679992745804 0.018913519396236575
0.027524389281714717 0.018095486695698795 0.005168830801755171 8.347169110792713e-06 -0.0006078494711433713 -3.099226210543349e-05 -3.95e-322 2.5e-323
-2.5e-323 -2.5e-323 -2.5e-323 -1.9150516122071418e-179 -7.663830686650674e-05 -4.964100934517622e-23 -3.5743035587820755e-09 -0.00014857531239149922
-0.0005632524031219522 -0.0005439332300335971 0.004052495926811454 0.033824631101275884 0.07706712494086086 0.089904570765408 0.04224914122160066 0.003975784230094738
-0.005656622604039331 -0.007807481858032523 0.007199252625856382 0.038910110823406875 0.05095430913261628 0.02905893606717971 0.006743086799973114 -0.00043128614459123673
-0.001276284365533845 -3.602630732965784e-05 -1.917151323987679e-06 -1.04571890399328e-06 2.5e-323 2.5e-323 -4.017250644609522e-260 -4.2431535721452976e-179
-0.00019115042377160666 -0.00016601242190619487 -3.2087692894750386e-08 -3.080228451264679e-05 1.4847060743306522e-05 -0.00101226162414347 0.0077163637215866 0.056821758551667274
0.11054736665905456 0.10304798657988037 0.030051412391780795 -0.00934797215739191 -0.01615350711928169 -0.007961768785651602 0.021852502246763054 0.06020674900796682
0.06798854174053379 0.032735545809303504 0.005700417012842874 -0.0023541274196633073 -0.001283828591339374 -0.00018956437418780523 -7.212950152383672e-05 -1.8300080819882361e-06
1.4864139525082196e-303 -2.5e-323 -6.377385398317546e-259 0.0004503251709472333 -0.00023448153958319847 -0.00025096558704529385 -7.807538107189577e-06 -5.326781939144426e-05
-0.00017924022485987543 -0.0003829395426420969 0.01555554678098263 0.07664936878215164 0.12911785866549208 0.08874308243099753 0.011883574391554061 -0.012819529290989118
-0.01252113486209313 0.004104702413668053 0.048233558536891194 0.08448859364359429 0.07186525571355956 0.030303836499128465 0.0030721214666956462 -0.0015379119197695996
-0.0012007266418629186 -0.00043463724986529846 -2.6004422262219084e-05 -2.5e-323 -2.7974e-320 -2.387e-320 -4.243220993368837e-259 0.00025234410388650074
00000000: 0500 0000 0000 0000 0500 0000 0000 0000
00000010: 0500 0000 0000 0000 0500 0000 0000 0080
00000020: 0500 0000 0000 0000 0500 0000 0000 0000
00000030: 0500 0000 0000 0000 0500 0000 0000 0000
00000040: 0500 0000 0000 0080 0500 0000 0000 0000
00000050: 0500 0000 0000 0000 0500 0000 0000 0080
00000060: 0500 0000 0000 0080 0500 0000 0000 0000
00000070: 0500 0000 0000 0080 0500 0000 0000 0000
00000080: 0500 0000 0000 0080 0500 0000 0000 0000
00000090: 0500 0000 0000 0000 0500 0000 0000 0080
000000a0: 0500 0000 0000 0080 0500 0000 0000 0000
000000b0: 0500 0000 0000 0000 0500 0000 0000 0080
000000c0: 0500 0000 0000 0080 0500 0000 0000 0000
000000d0: 0500 0000 0000 0000 0500 0000 0000 0080
000000e0: 0500 0000 0000 0080 0500 0000 0000 0080
000000f0: 0500 0000 0000 0000 0500 0000 0000 0080
00000100: 0500 0000 0000 0080 0500 0000 0000 0000
00000110: 0500 0000 0000 0080 70be c533 4501 cb81
00000120: 0500 0000 0000 0080 475d 1594 a76a 2d88
00000130: 1c39 5efe f0e3 5188 bf98 069e 5c0c c9be
00000140: e33c 9344 7598 31bf b8e4 c1d1 a296 3dbf
00000150: bea8 6f30 4eae 2bbf fb2b df7c 407c 18bf
00000160: d358 ccc7 e0e6 e9be 4953 2631 4eef 5292
00000170: 7428 6e15 2f6a c081 e1f4 5fe7 5a58 f281
00000180: 44dd d865 dbb3 e781 0500 0000 0000 0080
00000190: 0500 0000 0000 0000 0500 0000 0000 0080
000001a0: 0500 0000 0000 0000 0500 0000 0000 0080
000001b0: 0500 0000 0000 0000 0500 0000 0000 0000
000001c0: 0500 0000 0000 0000 0500 0000 0000 0000
000001d0: 0500 0000 0000 0080 0500 0000 0000 0000
000001e0: 6159 e92a 6108 acb6 75e8 d101 477c b4b6
000001f0: 0500 0000 0000 0000 9c52 6c59 5faf 3cbd
00000200: f691 392f c3c0 e0bd ece0 676e 210f 3fbe
00000210: d266 0bf8 a709 82be 5218 f667 89bf 24bf
00000220: e084 0ebf a557 5cbf bf86 1b17 7d17 70bf
00000230: af47 5b6d 3efa 68bf 36a6 8c23 03f8 56bf
00000240: dd72 3df5 95f2 45bf 8ee8 ddbf 0df0 34bf
00000250: 9093 2508 d466 f6be 0021 fc9d 1582 433f
00000260: 101e b974 3e56 383f 2900 0000 0000 0080
00000270: 0700 0000 0000 0080 0700 0000 0000 0080
00000280: 0500 0000 0000 0000 0500 0000 0000 0000
00000290: 0500 0000 0000 0080 0500 0000 0000 0000
000002a0: 0500 0000 0000 0000 0500 0000 0000 0000
000002b0: 0500 0000 0000 0080 0500 0000 0000 0080
000002c0: 307f 5d88 3f54 a2b6 6d24 2f6e 5df4 aab6
000002d0: 0500 0000 0000 0000 0e92 a7ff def3 62bd
000002e0: e4b4 95ad 5d0f 10be 6829 7cbc a912 46be
000002f0: 7b1c 97ca 2c25 13bf 9578 143a 94b8 45bf
00000300: b875 4b47 7232 72bf 7ec2 cd5b c941 80bf
00000310: b582 8a18 7e0f 7bbf c1f1 6284 b7b7 65bf
00000320: 06dc 9237 49d7 323f 5168 a6f2 2a4f 563f
00000330: 89f0 acab c2af 433f bd9d a3f7 14e1 4b3f
00000340: 41a6 413b 6106 323f 5458 116b dfba 32bf
00000350: de30 89f8 dc2a 32bf 86df 3df0 b512 59be
00000360: 880a 9886 d8f5 e3bd 0500 0000 0000 0000
00000370: 0500 0000 0000 0000 0500 0000 0000 0000
00000380: 0500 0000 0000 0080 0500 0000 0000 0000
00000390: 0500 0000 0000 0000 0500 0000 0000 0080
000003a0: 0500 0000 0000 0000 e66a 4612 03e1 24a5
000003b0: fb9f 699b 8451 2fa5 1343 d689 1ee2 2518
000003c0: 1df8 1b65 f58a 03be 2c3e b10e 0a80 17bf
000003d0: c8af a475 573b 34bf ef32 ece7 14d8 43bf
000003e0: 3062 973d 5cb3 653f 9d4b 8745 1189 763f
000003f0: 48f2 85da ac78 533f e711 a57f ee51 623f
00000400: ce25 6eb2 1984 423f 00d5 4245 6565 573f
00000410: be4f c8f2 a9da 713f 1921 a2f3 de25 703f
00000420: 769f 2075 c67a 703f 0c79 b4ea e8a7 683f
00000430: f430 669d c918 503f 6798 e198 6b50 41bf
00000440: 42ad 89d4 d56a 2dbf 13b3 7204 b63f 00bf
00000450: 0500 0000 0000 0000 0500 0000 0000 0000
00000460: 0500 0000 0000 0000 0500 0000 0000 0080
00000470: 0500 0000 0000 0000 0500 0000 0000 0080
00000480: 0500 0000 0000 0080 e66a 4612 03e1 54a5
00000490: faa4 9947 da40 90bb 34a4 7503 6dca 1dbf
000004a0: 03f3 6f89 ee9e 3ebf daf7 42ba c42e 49bf
000004b0: 1b3b b457 d992 4abf 690b eb5f 73dd 843f
000004c0: 0753 9008 d6fd a23f 134b 42f5 dc0f a93f
000004d0: f811 e3ce 7ac8 9d3f fcee 6f07 1e04 823f
000004e0: 2b04 4bee faf3 34bf 16d0 d581 f102 57bf
000004f0: b1bc 5b0c 1e43 733f ec50 09cd 105e 933f
00000500: b8b6 3a7f 5a2f 9c3f 37bf 408e 9f87 923f
00000510: bb95 0874 e92b 753f dded e12f 5a81 e13e
00000520: 1fd5 bacc 02eb 43bf 13b3 7204 b63f 00bf
00000530: 5000 0000 0000 0080 0500 0000 0000 0000
00000540: 0500 0000 0000 0080 0500 0000 0000 0080
00000550: 0500 0000 0000 0080 d5dd 7189 c8dd d39a
00000560: 8d93 2116 1c17 14bf 6fba 56fa 9201 4ebb
00000570: 5534 9d05 fab3 2ebe f359 2637 5c79 23bf
00000580: 7c7c 4d53 e774 42bf e8ed 93b7 d7d2 41bf
00000590: 84b4 9097 5999 703f 522c c248 7651 a13f
000005a0: 07be 37cd abba b33f bec6 3267 fc03 b73f
000005b0: 8666 a9ef ada1 a53f 2848 e873 e948 703f
000005c0: 0e4f 7111 662b 77bf 2ee9 e8f3 bcfa 7fbf
000005d0: ded0 56a9 f67c 7d3f fdc6 f0aa 06ec a33f
000005e0: 7835 a1e6 ae16 aa3f 67a7 4230 a0c1 9d3f
000005f0: d4c5 7a94 a39e 7b3f 6d72 e0e2 c743 3cbf
00000600: 0f34 10e7 1fe9 54bf e6b0 847e 5ee3 02bf
00000610: 1297 2216 0d15 c0be 16bc 2518 548b b1be
00000620: 0500 0000 0000 0000 0500 0000 0000 0000
00000630: fdef 05f6 efc3 138a 85df b70b 4002 e69a
00000640: a5b0 2ea3 f10d 29bf 9c73 7bd8 73c2 25bf
00000650: f627 8753 193a 61be 75a8 de6f 3626 00bf
00000660: 6a34 9e7d f422 ef3e f037 86a4 bb95 50bf
00000670: a088 409d 319b 7f3f 217a 5cd5 bd17 ad3f
00000680: bba5 750c d54c bc3f d27b 4754 5a61 ba3f
00000690: 466b af25 ccc5 9e3f fd6d 9995 0725 83bf
000006a0: eb0c 2c83 8b8a 90bf 4de7 6b84 424e 80bf
000006b0: c144 f199 8060 963f 8bb3 f943 6bd3 ae3f
000006c0: 3640 4773 b267 b13f a2d8 55a5 b6c2 a03f
000006d0: 9aaf 4c0a 5259 773f adf4 e588 f648 63bf
000006e0: 60ee 0f74 c408 55bf 785d 4393 b9d8 28bf
000006f0: ec4a 8666 87e8 12bf 1409 422a d3b3 bebe
00000700: 26f3 9376 2e4f 1001 0500 0000 0000 0080
00000710: e0e3 1916 689c 538a 3d98 bce1 3383 3d3f
00000720: e484 8a16 e5bb 2ebf 0dc0 20fd 8072 30bf
00000730: 9a70 dcdd a35f e0be d912 7556 7ced 0bbf
00000740: a517 ccce 4d7e 27bf 03c6 decf a818 39bf
00000750: d8d4 9025 96db 8f3f 9eaa 2d04 4b9f b33f
00000760: 941f 261a ef86 c03f db90 c9dc ddb7 b63f
00000770: 3870 f85a 6a56 883f e075 7018 2041 8abf
00000780: 2c95 ee45 aea4 89bf 3836 06aa 17d0 703f
00000790: 06a7 f8a8 11b2 a83f c892 9562 0ba1 b53f
000007a0: 8427 02eb c265 b23f d90e d40a f807 9f3f
000007b0: d44e 52a7 b42a 693f 0d0c 9259 7832 59bf
000007c0: ab8e 206a 36ac 53bf 206b 17c6 007c 3cbf
000007d0: 6a1d 6a4a 8244 fbbe 0500 0000 0000 0080
000007e0: 1e16 0000 0000 0080 df12 0000 0000 0080
000007f0: 0fd7 d3d2 b218 4a8a 2f86 6cac a189 303f
