config/mnist/weights/config_weights_Epoch1_100hidden.npy (npy, 627328 bytes, 1 tensors)

array f8 [100, 784]
000000 6d 45 5b 95 18 a4 b3 bf 89 88 0b f5 74 64 e2 3f
       -0.07672265669250118 0.5747628007923292
000010 25 68 0c 49 57 e8 e0 bf 1a cc eb 95 87 b5 b4 bf
       -0.528361933396131 -0.08089492235357945
000020 a9 ba b4 0f 45 05 e1 3f 1f b0 a0 1d 00 23 d2 3f
       0.5318932825810708 0.2833862580616841
000030 b9 35 49 16 72 38 c5 bf 63 3c 5c 25 e1 32 c4 bf
       -0.16578508461172506 -0.15780271839364265
000040 1b 0d 10 ba eb aa c4 3f fa 22 05 01 58 d8 a5 3f
       0.16146608910649082 0.04266619694187131
000050 f4 32 01 f7 b7 fa dc bf 1d 40 53 09 44 fa cc 3f
       -0.4528026497035136 0.2263875051053227
000060 04 84 70 ee a3 cf c1 bf 2b 38 fb c7 61 12 d9 3f
       -0.139149180818123 0.3917469456617961
000070 34 c8 2e da 5d d7 d1 bf a4 e7 a5 55 62 35 a8 3f
       -0.2787699347201198 0.04728228850849739
000080 19 fb 1a 2a 53 62 e1 bf 82 5c 5f 45 ee 09 8c 3f
       -0.5432525465365386 0.013690816394883013
000090 08 37 35 84 5a 93 cc 3f 1b 2b 2c 54 61 73 ae 3f
       0.22324687438452195 0.059474030995337844
0000a0 44 69 6b 55 9f 34 d6 3f e5 af ad 37 33 5b d2 3f
       0.34696181623225564 0.28681641042089573
0000b0 2f f2 f5 92 10 46 d1 3f c7 e9 8a ad 35 cd cc bf
       0.26990141250260796 -0.22501250242005552
0000c0 a2 09 1e 40 3f fb ba bf 08 3e 2b 5f 56 f0 d1 3f
       -0.10539622607578861 0.28029403013076193
0000d0 97 da 9b cc b8 b3 c8 bf 07 28 0b 94 9f af b5 3f
       -0.1929846762720515 0.0847110496935387
0000e0 dc f9 1f 79 0e 80 c3 bf fe 41 80 31 38 10 a3 3f
       -0.1523454753332335 0.03723312000522937
0000f0 24 57 a1 07 a3 34 d4 bf ef 46 6e 07 99 af d6 3f
       -0.3157126974596045 0.35446763730679626
000100 ef 24 ea 56 2d 7e d8 3f 0c 38 62 c8 c6 ad e4 3f
       0.3827012394691129 0.6462129510634909
000110 34 ad fa 15 5e fa db bf 75 03 af 0c ed 41 9c 3f
       -0.4371562208786657 0.02759523763575396
000120 95 3a 8b 68 02 af d6 bf af cb 67 9d 45 fd b4 3f
       -0.3544317265449675 0.08198962300211464
000130 fa 02 84 4c 14 09 d5 bf a7 a2 42 78 40 0f d2 3f
       -0.3286791560386032 0.2821808981339395
000140 40 6c 25 72 47 30 94 3f 9e 46 36 77 fd 6d d4 3f
       0.01971542009537708 0.31921326295660346
000150 6f b6 7a 3a 3c 2b ab 3f 71 6a 45 a7 7f 8a a7 bf
       0.05306423391207892 -0.04597853581318113
000160 de 0a a2 99 72 18 b1 bf ef 61 9e 76 72 28 df 3f
       -0.06677929163746962 0.48684369644027375
000170 ee ca a8 9f 2c a7 ab 3f 45 70 a0 46 d3 b3 c7 bf
       0.05400981377569801 -0.18517533253259635
000180 5c 89 75 91 b1 f3 c8 bf 99 87 9b 28 9e a7 ba 3f
       -0.1949369392633099 0.10412014476199118
000190 fb 3a 68 a7 f8 9b db 3f 66 e1 5e 11 c6 0f ac bf
       0.4313947329364251 -0.054807843800008624
0001a0 33 1d eb 62 60 44 a1 3f 3f 78 04 86 62 d7 c1 3f
       0.033724796366693253 0.13938552421399383
0001b0 73 c6 34 11 5c 48 c2 bf 77 95 90 b2 91 10 a7 3f
       -0.14283324089187807 0.04504828743692262
0001c0 fa b1 13 54 86 af f0 3f be 2b 08 ca d8 9a 99 bf
       1.0428527149443867 -0.025004756289529466
0001d0 df 03 c7 b3 e4 b0 b0 3f 54 55 9e d5 e9 2d ea bf
       0.0651991785916972 -0.8181046650158046
0001e0 c7 25 29 46 e6 f4 b5 bf ca 8b f7 ba 74 b4 d2 bf
       -0.08576811993511689 -0.29226415880674195
0001f0 12 d1 6c 85 2d 54 c0 3f c3 ee f1 c4 e1 06 a3 3f
       0.1275689031114174 0.03716187981714605
000200 da e3 44 8f ac 87 d1 3f 56 26 bf e6 f0 4e e1 bf
       0.27390588751910416 -0.5408863550921506
000210 f5 4f a3 1e 19 6f cd 3f 94 19 e7 80 33 5d d9 3f
       0.2299529456710158 0.3963135489288103
000220 cd 88 96 98 99 e2 c6 3f 67 04 bd f5 39 7a e0 3f
       0.17879028273188738 0.5149202155663603
000230 d6 e4 5f d5 60 b6 b8 3f d6 84 67 f8 a9 9e c3 bf
       0.09653287133541552 -0.1532795393859831
000240 9a 33 39 c3 ba 1a d9 bf d9 ac c0 42 d6 3d cb bf
       -0.39225644173421303 -0.21282461413770795
000250 5a 62 65 a7 bf 43 eb bf 7d f3 cf 97 f2 d9 d6 bf
       -0.8520200986341238 -0.35705246758862313
000260 3f ad 7d 65 62 70 db 3f 50 0b 7d 20 d2 25 d2 bf
       0.4287343970415413 -0.2835583989400918
000270 0e 80 ae 5c 79 22 e1 bf d0 52 c5 63 ab 09 d9 bf
       -0.5354582605541525 -0.3912151789020699
000280 ed f0 6f 7e 79 52 d6 3f 2c 52 d1 b6 32 e1 a6 3f
       0.3487838492144551 0.04468687516842737
000290 d5 79 af d9 74 17 cd bf ec 4c ec dd ce 78 d0 bf
       -0.22727833394215105 -0.25737353965924004
0002a0 06 f0 ae 4e 55 80 c4 bf 45 62 69 ad 67 87 d8 3f
       -0.16016641942940185 0.38326446470958714
0002b0 a5 99 52 bb 40 b4 d9 3f ae d4 3c f1 41 c8 c1 bf
       0.40162676137188164 -0.1389238765638416
0002c0 be 52 80 99 c4 ab c9 bf d6 8a 98 71 b5 55 c6 3f
       -0.20055444235972247 0.17449062391923204
0002d0 af 0c 98 54 d1 e9 cf bf f4 72 f3 f4 43 df b0 3f
       -0.24932304983676576 0.06590676050423011
0002e0 87 dc e0 36 81 af e6 3f e3 89 26 9c b2 49 e1 bf
       0.7089239188998285 -0.5402463006797088
0002f0 f0 6b 2a f5 51 3b d1 bf e2 27 dd 28 f0 d2 d5 bf
       -0.269245614452017 -0.34099964132894744
000300 d6 d0 89 fe 7c 9c d0 bf d3 c7 4a a6 27 11 e0 3f
       -0.2595512853361134 0.5020941017048649
000310 dc db f9 f2 4a 40 d6 bf 7f e0 29 81 2d fd ca bf
       -0.3476741192638977 -0.21085137183013455
000320 fb 99 57 d8 a1 58 e1 bf f9 ae 0e f2 22 8c d3 bf
       -0.5420693612512076 -0.3054282535401707
000330 d4 00 08 b3 2c c6 e2 bf 52 20 64 44 7d a2 dd bf
       -0.5866912361816738 -0.46304256132907995
000340 fe 23 28 61 fd 6e 88 bf b9 fa ea 2c 3a 6a ea 3f
       -0.011930446174135408 0.8254671933462624
000350 d0 9d 54 44 80 5b c5 3f 63 c9 16 79 de 06 db 3f
       0.16685489021732147 0.4222942526349895
000360 18 43 a1 2a 22 79 cd bf 5d 9e 98 ce 5e 4f dc 3f
       -0.23025919992007782 0.4423443810978592
000370 55 9c 94 31 2a 2a d9 3f b6 1a 79 fe 47 fb d3 3f
       0.3931985363182709 0.3122119889343752
000380 fb 4d 32 e4 40 cd d7 3f 2a 3f 55 3b f8 5e 8b 3f
       0.3719026783448666 0.01336473399228984
000390 5b 73 1a 05 88 b7 e1 bf 7a 44 9f 14 28 9b c2 3f
       -0.5536537265466949 0.14536000258388865
0003a0 30 7b 3e 96 81 b8 ac bf 36 54 33 19 e4 5a c8 bf
       -0.05609517058404945 -0.19027377348416658
0003b0 37 be 7f f3 12 a7 ae 3f 62 76 91 88 56 75 d9 bf
       0.059868423675535735 -0.39778674446811213
0003c0 e7 30 23 6e a4 29 c9 3f 5c 85 df a0 4e 40 e1 3f
       0.19658332231336503 0.5390999929478926
0003d0 74 be 3c be 99 62 df bf a1 54 bf 6f a9 ff e0 3f
       -0.49039310052737695 0.5312087233129611
0003e0 bd ff 56 e9 d3 45 db 3f e8 05 82 60 32 0b db 3f
       0.42613694941610075 0.4225583975276934
0003f0 b1 1b e8 8f b6 09 95 3f ba 8e ad 28 8a 3a d0 bf
       0.020544865163198704 -0.2535729787107176
000400 93 69 26 96 f8 ec dd bf f1 b2 34 40 8f fd e2 3f
       -0.4675885645207469 0.5934520963688482
000410 6c e2 3f 7a b9 4a e0 3f a4 b0 88 eb a5 41 ca bf
       0.5091216457067964 -0.20512842178994106
000420 40 93 c2 09 f4 8a 96 3f 9a 27 85 8e 82 68 d5 bf
       0.022014439674097774 -0.33450378339750275
000430 a7 f6 d6 cc ec c1 df 3f f4 77 da 88 93 37 ce bf
       0.4962112427127558 -0.23607105428976605
000440 34 0b 73 6b 06 9c d6 3f d4 9e f5 d6 0a 9a c0 3f
       0.35327301495651686 0.12970099922244194
000450 eb 37 35 7b 73 0c e6 bf 7a 0f 9c 82 c8 b6 a7 bf
       -0.6890199095157618 -0.046316400474124955
000460 a4 5d c0 79 16 4a bf 3f 85 ca e4 bb 89 37 d8 bf
       0.1222242400402736 -0.3783897719287455
000470 3e a9 33 c8 5b 58 e7 3f 58 90 10 6d 3e 24 c2 3f
       0.7295359525863103 0.14173107457566192
000480 a0 3e 21 09 88 c1 a2 bf 97 cf 62 3a 7e 1d d0 3f
       -0.03663277732323178 0.2518001146483981
000490 51 44 e1 6a f2 be a8 bf 07 75 d1 0e d9 6f e0 3f
       -0.048331809565418944 0.5136533059518634
0004a0 e9 be d7 01 93 35 c0 bf 2c b0 86 3e 85 b2 c8 3f
       -0.12663495626428947 0.19294801285775642
0004b0 11 fd a0 9f 9d 16 e0 bf 0c a3 a8 44 66 d9 ac 3f
       -0.5027607076407624 0.056346126443093864
0004c0 28 a6 7e 41 f2 5a c4 3f be 5b a4 ab 25 31 c3 3f
       0.15902546117767824 0.14993735199888464
0004d0 70 06 1d d9 78 7f d1 3f 5d 84 0c 7f c9 0a e2 3f
       0.27340527727583375 0.5638167840408063
0004e0 34 d9 92 c2 ef 46 eb bf 18 07 0b e1 b2 fb de 3f
       -0.8524092483774326 0.48411247231352794
0004f0 07 53 78 49 8e e5 e1 bf 95 12 90 ca 4c 23 e0 bf
       -0.5592719492875354 -0.5043090778641096
000500 a0 0d bc 65 85 01 d1 bf 96 46 8e 06 5e 56 c1 3f
       -0.2657178395749842 0.13544822044473354
000510 33 f7 40 44 30 d7 ce 3f 58 d3 4d 6c 56 11 e9 bf
       0.24094203312591275 -0.7833664050400371
000520 e3 fe 38 56 94 62 e2 3f 8e e1 f3 46 8b 65 c6 bf
       0.5745336231265948 -0.17497387852177976
000530 cb 61 ea cc 77 06 e8 3f b2 2e fb a7 ff 8b df bf
       0.7507895471817901 -0.4929198399010871
000540 b8 0b 21 91 36 32 e7 3f 82 85 e7 57 98 fe 87 bf
       0.7248795351555293 -0.011716070349339306
000550 4d ed 10 9b 96 6e bf 3f 99 6e 4b 3e fa 93 ea bf
       0.12278119359773605 -0.8305636612598902
000560 32 76 e1 8e ab 57 e3 3f f5 48 e6 83 e9 da e9 3f
       0.6044519224776137 0.8079726768649197
000570 99 c4 f9 34 bc d1 ce 3f 51 c9 54 76 ef e9 eb bf
       0.24077560984327276 -0.8723065673023404
000580 98 1c 1f e9 f1 ed a8 3f 74 f6 c5 e1 4a 5b c4 3f
       0.04869037600251963 0.15903602623068347
000590 d9 e7 f5 c2 c0 3a da bf 02 a1 50 61 f6 8e 8e 3f
       -0.40983599700086654 0.014921116680924221
0005a0 77 11 d7 55 91 a8 e4 3f 5c a4 20 1f b0 4b e6 bf
       0.6455771137776044 -0.6967392547568454
0005b0 c6 90 c6 ba 7a 85 c6 bf ca c5 2c dd e1 62 cd 3f
       -0.1759484683981382 0.22958014773898433
0005c0 94 22 74 88 ba fa d3 bf 25 86 28 cd fe ac ec bf
       -0.31217826200057996 -0.8961175925252901
0005d0 0c 97 ca a5 01 2f d6 3f 93 16 9b d2 3b 3c c3 3f
       0.34661904516757214 0.1502756861065576
0005e0 4d 27 83 cd db a8 ad bf c5 3e 1e 8a bf 69 b9 3f
       -0.057928913914635595 0.09926983949685127
0005f0 90 16 63 89 2a 32 e0 3f 80 ca ab b2 71 af e2 3f
       0.506123798688991 0.5839165200871577
000600 8f e8 17 3a df b4 e3 bf 1c ad 61 b9 4f 87 d3 bf
       -0.6158290991436547 -0.3051337538115193
000610 86 03 ff 51 c4 6e c2 3f 31 d5 c1 4e c7 91 b2 3f
       0.14400533679693356 0.0725369040754529
000620 d1 d4 af f9 5e 50 c3 3f 85 24 88 13 55 6e dd bf
       0.1508902281927136 -0.45985915095713664
000630 5b f2 52 3a a3 52 d2 3f 1c 8f 99 99 07 ee ab 3f
       0.2862937993593612 0.05455039739606901
000640 23 a8 0a 7d af 06 d3 bf 23 d4 8c 2c 73 7f da 3f
       -0.29728305064293375 0.41402892447087164
000650 6f e4 39 45 96 69 ce 3f 92 67 d7 f4 16 7a d2 bf
       0.23759725933249196 -0.2887017622975857
000660 08 62 ea a0 bb 70 e0 bf 3c 77 40 67 78 9d d4 bf
       -0.5137613432771682 -0.32211122592149244
000670 5a f6 b5 49 50 53 e8 3f e3 fe 11 e9 6b a2 dd 3f
       0.7601701202072022 0.46303842316409155
000680 c2 81 24 db 94 af a0 bf 10 68 9a 12 6f 46 cf 3f
       -0.03258958029823901 0.24433697136265708
000690 24 ac fe 41 8a 18 c1 3f 83 b9 6b f3 19 0d d9 3f
       0.13356140348818812 0.3914246441990132
0006a0 6a 9f ea 34 a0 36 b5 bf c6 d9 64 c4 62 c1 be 3f
       -0.08286477367312065 0.1201383332707798
0006b0 9b 7c 2b 8f 69 a5 d3 bf 6b 83 18 ef 50 2b e1 bf
       -0.3069709680693877 -0.536537615760705
0006c0 05 a6 cc df 7f 83 cc bf 45 77 5c 7c 84 c4 7b 3f
       -0.2227630465288685 0.006779210589028588
0006d0 bf 13 cb 47 9a ed e8 bf 20 f4 d8 02 45 9e e8 bf
       -0.7790042307102495 -0.7693200164427516
0006e0 d4 1b a4 48 1d 73 86 bf 99 7f 52 94 20 2c da 3f
       -0.01096175077374354 0.4089433144053998
0006f0 01 48 22 31 5f 8a d2 bf be 08 30 ee 4d ee d7 3f
       -0.2896955470870353 0.3739199472476108
000700 06 69 c9 1e f0 bb cd bf 76 ec 55 7a 96 89 c6 bf
       -0.2322979116750689 -0.17607384656352892
000710 9f 19 f6 2c bd 17 da 3f f0 b6 3a 61 70 2b e8 3f
       0.40769891157870036 0.7553026103030032
000720 f7 3c 3f 2d c4 6a cc 3f a6 b8 5a fd 88 6d d1 3f
       0.2220082493717894 0.2723104929126613
000730 d2 4f 05 3a 5a 05 d2 bf 01 2a d7 02 bd 63 ac 3f
       -0.2815766874894027 0.05544844302820096
000740 37 08 c3 73 3d 16 c9 3f 90 c6 64 ae 25 59 d6 3f
       0.19599121239122194 0.34919111281042436
000750 80 26 5c 81 d5 00 c0 3f 4b 80 f6 76 dd df bf bf
       0.12502545181660096 -0.1245096602856403
000760 63 72 06 6c 8c bd a9 3f 8b 3a 37 3a 73 83 a8 3f
       0.05027426546732696 0.0478778847278721
000770 fe 1a e6 50 c6 1f a7 bf 3f 87 7e 24 aa b8 cb 3f
       -0.0451642965081671 0.21657301694818362
000780 a0 08 fe 29 78 9a f2 3f e4 7b 92 39 aa 54 d2 3f
       1.1627122536015477 0.2864175379017395
000790 49 68 0c 9b e7 7b c0 bf e5 2a 5c 2c d8 e9 a2 bf
       -0.12878127165532963 -0.036940341391604105
0007a0 ac 24 5b 47 de e9 dd bf 23 00 08 30 fa e5 d5 3f
       -0.46739918678629055 0.34216170015861475
0007b0 32 d6 40 7c 5e 4f a6 bf 48 4c 6f f2 f9 79 c8 3f
       -0.04357428805125742 0.1912224229587045
0007c0 7e c9 20 df cc d9 9c 3f 38 9b 94 20 9f aa b2 3f
       0.028174592131287472 0.07291597886488155
0007d0 bc 86 93 4a 83 c0 74 bf 6b 55 a3 a8 1f 27 db 3f
       -0.005066407067006725 0.4242629191260991
0007e0 55 23 12 8b aa 49 e9 bf 42 ea 2e 8d 98 c7 da bf
       -0.7902424541690417 -0.4184323672049325
0007f0 76 cb 20 58 c4 84 a3 bf 68 0e 47 ca 05 64 c2 3f
       -0.038122306592774644 0.1436774480517784
