config/mnist/weights/config_weights_Epoch1_100hidden.npy (npy, 627328 bytes, 1 tensors)

array f8 [100, 784]
000000 2f d2 ed db fd 5c b5 3f 91 c8 7f e3 ca ba c8 bf
       0.0834501897750861 -0.19320045574528824
000010 3b 21 48 df d4 2b c2 3f 90 17 c6 2a 4a b9 dc 3f
       0.1419626322024302 0.4488091867173063
000020 c5 57 ce 07 59 9f f3 3f f0 53 92 a1 ff 1c c1 3f
       1.226403265468876 0.13369746579397157
000030 5e b7 cb 73 22 08 ef bf 52 60 25 ce dd cb d8 bf
       -0.9697429906498021 -0.3874430192131558
000040 68 ac 6d 60 d5 db e5 3f 4e 41 ee 8d 45 70 cb 3f
       0.683085144364111 0.214363760282604
000050 e1 b9 78 19 cd fc e8 bf 05 ab 25 cf 82 b2 e7 bf
       -0.7808595178119583 -0.7405408902971834
000060 6c df d7 86 f6 94 e0 3f bc 94 7a ca e8 c2 af 3f
       0.5181839593560489 0.062033915249494836
000070 02 07 ee 4c 69 e1 c0 3f b1 04 d5 db 1e 58 d8 bf
       0.13187900787675494 -0.38037845104197304
000080 d9 92 d9 be 6a de c4 bf c8 36 15 66 37 4e c4 bf
       -0.1630376273998511 -0.15863697514071462
000090 e9 66 bd 1c 70 ae e6 3f a7 8e 29 17 79 55 ef 3f
       0.7087936936688638 0.9791837170018497
0000a0 03 1d be 39 e6 6e ca 3f b4 f8 85 f6 b1 c1 d9 3f
       0.20650937861885418 0.4024472148374898
0000b0 a1 87 47 68 65 da 75 bf 4d f1 0f 19 42 9a e7 bf
       -0.005335231897761889 -0.7375803460595677
0000c0 ad dc 84 2c 5c cd e1 bf 53 33 64 6c 4d 8c e2 3f
       -0.5563183660041396 0.5796267621059122
0000d0 db 8a 7f 61 49 49 97 bf 44 f6 dd 58 ef d2 93 3f
       -0.02274050386030067 0.01935934047604905
0000e0 8a c7 04 65 26 5e e2 bf 14 8c 71 8c a9 19 de 3f
       -0.5739929173489469 0.47031630244436085
0000f0 51 9e 71 3a 15 b4 ee bf ec 7e 7c a7 86 34 e9 bf
       -0.9594827786904238 -0.7876618643967652
000100 d3 eb 24 af 2c 63 e2 3f df 5e 07 8d 0b 63 ea bf
       0.574606268003999 -0.8245904688328344
000110 c4 07 19 be c3 d7 db 3f a9 cc 17 a2 b8 1f d9 3f
       0.4350442272590238 0.3925611098231437
000120 6f 0b 8b 1c 12 ac d6 3f 35 ce 78 5a cf 53 e9 3f
       0.35425236499229745 0.7914807097462871
000130 a4 21 89 5b 6c 55 d2 bf 80 88 d7 a8 a1 7f e4 3f
       -0.2864638227370284 0.6405800149625662
000140 bf 91 39 24 43 38 a5 bf 62 1f 90 45 50 89 e2 3f
       -0.04144487206648106 0.5792619093563014
000150 22 ac 3c 43 9e 19 e9 3f 24 73 92 8a 0b d8 de 3f
       0.7843772233221709 0.48193634540966657
000160 f7 68 61 46 93 ba d5 3f 54 1b 90 20 7c cb e7 bf
       0.33951265214058374 -0.7435894618982766
000170 2f 50 b3 a2 66 bb d8 bf c2 bd 11 c7 91 d4 d3 3f
       -0.38643804444041313 0.30984920921670434
000180 c4 84 62 32 bc 5e e2 3f f1 55 ff 92 01 93 db bf
       0.5740643486098169 -0.4308475432893309
000190 f8 a1 eb 55 e7 8b d6 3f 86 cb aa a8 fb 81 be 3f
       0.35228904143016804 0.11917088382578642
0001a0 7c 2e 96 0e e9 b0 da bf 0f 6e b4 4e 76 de f8 3f
       -0.4170477526138041 1.55431204551758
0001b0 1d ef 69 b7 2f 00 e5 3f 8f f7 97 06 b9 2e e2 3f
       0.6562727529812694 0.5682034615308441
0001c0 a4 a2 69 2c f8 31 c1 bf d2 5a 79 1b f6 8f f3 bf
       -0.13433744591317975 -1.2226468156056183
0001d0 b1 55 ae 95 fa 39 ce bf 31 0e 5c 87 19 6c eb 3f
       -0.23614437397615753 0.8569457668058417
0001e0 46 87 e3 32 2f 54 c2 bf fa 78 13 0f 0a c9 d1 bf
       -0.14319410309604502 -0.2778954646327204
0001f0 9d 56 3e 2c 21 bc e3 3f a2 04 3a 50 14 ae df bf
       0.6167150367861783 -0.4949999602759566
000200 df c2 29 ec a7 d9 be 3f 55 60 3e 77 38 00 f2 bf
       0.1205086661882535 -1.1250538499789589
000210 0b 77 0f 69 02 ef f0 3f 98 a2 b0 36 69 47 d4 bf
       1.0583519081041597 -0.31685858097856956
000220 c1 18 b0 93 f4 cb e0 bf a3 2b 65 36 02 a4 81 bf
       -0.5248968967942106 -0.008613602910051038
000230 27 e4 c4 27 a4 88 c7 3f 9a 62 09 09 ff 53 c4 3f
       0.18385745946741958 0.15881336156123355
000240 47 ae 1a d7 01 5c d0 3f 0d 1d a5 a1 ce 2b b6 bf
       0.2556156731249967 -0.0866059441224147
000250 f9 df 39 d0 a9 c5 a3 3f aa 04 02 20 e9 87 e3 3f
       0.038617426555845165 0.6103406548646906
000260 48 2a 4c ea 27 85 ca 3f d4 d5 97 d0 d2 a0 c1 bf
       0.20718859615620233 -0.13772044358454016
000270 b6 a8 9e 6f 72 68 b7 3f 1b 02 86 a3 4e c9 e0 3f
       0.09143748498050538 0.5245736306970373
000280 64 be 18 21 76 36 fb bf 33 a2 f8 69 a5 cb e3 3f
       -1.7007962506139842 0.6186091489553917
000290 4b 7d ee e4 00 99 c7 bf 57 25 e5 47 96 06 ab bf
       -0.18435679605770824 -0.052784630085236976
0002a0 b1 18 a9 03 98 78 ac 3f 37 31 cf db b8 41 d7 3f
       0.05560755772289506 0.3633863588882095
0002b0 ad 04 eb d1 59 f8 cc 3f 2a c0 1a 5b bb 9a e1 3f
       0.2263290667524748 0.5501381663689291
0002c0 4c fb 89 f8 68 83 f4 bf d2 c1 22 f1 e7 b2 e5 bf
       -1.2820825298837972 -0.6780891141589172
0002d0 91 48 7f b6 24 7d e4 3f 2b eb e2 35 21 4e ac 3f
       0.6402762951277216 0.055283582523278994
0002e0 d2 0c 6f 5d 05 2d dc 3f ed 85 33 ab c5 b8 b0 bf
       0.4402478611411428 -0.06531939916342085
0002f0 d3 e0 1e af f1 c2 e2 3f 59 6f 20 09 c6 30 e9 3f
       0.5862968845676967 0.7872038057571259
000300 d2 83 b1 d7 8c 36 c2 bf 06 b5 34 c7 a5 31 ec 3f
       -0.14228973895936164 0.881060494493483
000310 95 42 7a d2 a2 4b e4 3f 32 98 2e ef cd ce f4 3f
       0.6342329131021694 1.300489363007284
000320 f6 84 76 57 cc 2c f1 bf 01 91 ba 34 2b 68 df bf
       -1.0734370628854868 -0.49073295735639993
000330 90 88 d2 4b 41 30 ae 3f 30 61 22 b7 75 87 c6 bf
       0.058961906915343865 -0.17600890581230422
000340 b9 09 b3 4e 2e 3a ec bf df e0 5d 9a 5f ea e0 3f
       -0.8821021592232717 0.5286100401854376
000350 ab d0 7b b1 5f f1 ce bf ab ea cc d0 c8 93 df bf
       -0.24174114385789855 -0.49339504614514834
000360 95 4e 96 23 ec 80 ef bf 1c 3f fa 0e f5 df bf 3f
       -0.9844875998555432 0.12451106658613437
000370 e6 fa 25 85 1e 5e ed 3f 32 8f 6f 38 53 1f f4 3f
       0.9177391624978923 1.2576477245829207
000380 ce 81 3a 63 cb 1c d6 bf 6a 8c cb 4d c5 09 ce bf
       -0.3455074757603399 -0.23467317865933818
000390 3d 8c d5 8b c1 07 be 3f da 55 1c 23 ea b7 e3 3f
       0.11730584777755922 0.6162005124812666
0003a0 12 67 d8 ab 98 f0 ec bf d9 c1 02 26 4c d0 cf bf
       -0.9043696743349037 -0.24854423385615013
0003b0 1e 4a 01 1e 65 67 f0 bf db 96 8d 92 5c 21 f2 3f
       -1.025242917258431 1.1331449246148881
0003c0 d7 ec 62 d8 df 03 b6 bf 3d 83 b7 1a 43 7c ea bf
       -0.08599661858436335 -0.8276687166036037
0003d0 df 77 da 9d 18 37 8c bf c2 66 cc 7d 8d 78 bf 3f
       -0.01377696258287736 0.12293323823214578
0003e0 cd 84 80 73 ec 07 e3 bf c1 57 19 07 f4 a6 e2 3f
       -0.5947172408961251 0.5828800333645107
0003f0 ca 23 e1 b3 60 e1 ee 3f 60 d8 62 cf ff 46 c7 bf
       0.9650119317312769 -0.18185422540927032
000400 34 06 9c be 1b b5 f5 bf 62 15 e0 63 88 7d da 3f
       -1.356715912407151 0.4139119124741538
000410 0f 61 7d 82 d3 8f e8 3f 45 1e 4c fb 74 59 cb bf
       0.7675569103840035 -0.21366750975015428
000420 64 21 90 e1 39 3c b6 bf 8d 96 9f b2 06 a7 e6 bf
       -0.08685647732648288 -0.707888935922442
000430 be f0 85 49 fa 47 e1 bf b2 9e aa cf fd ee ae bf
       -0.5400363384246913 -0.060417110061562154
000440 17 f4 c9 85 b2 50 f8 bf 31 80 a7 f7 2a 8d 8b bf
       -1.5197015024307399 -0.013452850039300386
000450 3c a7 e3 ea f3 07 d9 3f 8f 27 7f 0f b3 08 f1 bf
       0.3911104005661519 -1.064623890432333
000460 3d 7d 2f a8 86 ef f4 bf 86 4d 01 8d 9b d1 c8 3f
       -1.3084780282732276 0.1938967169286167
000470 34 6d 36 51 5b 53 cf bf 6c 5c 50 12 09 ca ea 3f
       -0.24473134484728976 0.8371625287717399
000480 ca e2 e1 11 0a 29 da bf 61 ca 8c 84 94 fd e2 3f
       -0.4087548422462929 0.5934546078554598
000490 72 a9 1f 66 7f 38 d7 bf 07 49 62 c9 21 af e1 3f
       -0.3628233430196338 0.5526284154205151
0004a0 cc 05 1d 94 3b a2 b9 bf 30 4f 2d e6 e8 33 eb bf
       -0.10013172498749795 -0.8500866408962562
0004b0 ef af a4 cc 9e 4e ee 3f 5e 1e 79 05 e9 e3 c5 bf
       0.9470972058238639 -0.17101776854746026
0004c0 92 b2 f9 22 2e d8 e0 3f d1 d2 49 f6 9f c5 cb bf
       0.5263891871560011 -0.21696853185462442
0004d0 b4 09 ce db ef 3e e0 3f 43 ea 52 f2 00 4f c1 bf
       0.5076827328742213 -0.1352235015127282
0004e0 18 97 30 55 29 e9 e6 3f 26 3a ca 6e 8c cd e4 bf
       0.7159620918143643 -0.650091377627011
0004f0 f0 69 34 c8 61 1b b9 bf bc b8 7c 1b 83 e8 c2 bf
       -0.09807406556902953 -0.1477207073416532
000500 f2 8c c5 8e d6 59 e1 3f 85 5b a9 8f 1b 2a dc bf
       0.5422165668973362 -0.4400700476593829
000510 5b b4 55 fb bc 0a 88 bf af 63 2b aa 05 a2 f4 3f
       -0.011739231510285266 1.2895561835523315
000520 d9 ff 58 02 1d 98 d1 bf 02 ad a9 99 2b 1a c8 3f
       -0.27490926007521704 0.18829865458551615
000530 b6 78 69 19 74 bd dc 3f ef 6f e8 35 c3 4a ca bf
       0.4490633247531933 -0.2054065716955615
000540 d5 19 48 3f 37 98 e0 3f d0 db 6e c3 0d dd bf 3f
       0.5185810314149487 0.12446676274599544
000550 d1 7a 27 86 a2 17 f0 3f 6d 2f a2 37 64 a5 e9 3f
       1.0057702293776638 0.8014393889038566
000560 36 01 f3 06 c4 9e be 3f ee 39 0e 9a 54 d5 e3 bf
       0.11961007280024635 -0.6197913178346519
000570 84 2c ac 56 2c 9e e9 3f 09 76 13 35 44 dd ec 3f
       0.8005582516501737 0.9020100628510487
000580 b9 57 27 47 bf 14 d9 3f 3e c6 cc 24 89 ab b0 bf
       0.391891307340639 -0.06511742733416612
000590 6e 70 58 a7 d0 be dd bf 2c 14 7b f0 4d c0 98 3f
       -0.46477142660456294 0.024171083262235424
0005a0 67 8d 44 fe 26 47 c4 bf 5d 31 89 1e cd 6e dd bf
       -0.1584213964025409 -0.45988777143499765
0005b0 05 f0 a4 df a5 40 b8 3f d7 30 4c 28 71 00 a2 bf
       0.09473644933763133 -0.03515962235369024
0005c0 8a ea 3b 9a 71 e4 ce 3f 0b c2 b2 e4 35 39 df bf
       0.24134655028304436 -0.48786685308280714
0005d0 81 81 d9 4d b1 19 e2 3f 66 9e 9a 04 4d e4 e4 3f
       0.565636302995742 0.6528687562867617
0005e0 e3 4e 9b 35 1d 99 d4 bf 0f 1c 77 e2 a2 a8 e1 bf
       -0.32184534297014816 -0.5518354819440691
0005f0 6f 47 8f 56 0a 56 e1 3f da 0b 86 f6 0a 21 b6 bf
       0.5417529764765571 -0.08644169348376299
000600 47 a6 c4 8f 4d 8c da bf 52 0b 1f 74 f2 50 de 3f
       -0.4148134140001258 0.47369061794249945
000610 0c 21 e7 33 3a 7f eb bf 04 f9 bc 93 d5 6c c4 bf
       -0.8592806829192638 -0.15957135881212292
000620 c4 46 5a cb 45 de b3 bf 2a f0 ee 81 ac 3f 86 3f
       -0.0776103612390911 0.010863635745288109
000630 80 7d 53 fa 79 0c e2 bf 0e 53 5b 9a e6 7e 82 bf
       -0.5640230073149013 -0.009031106553643944
000640 ab bb 0d 1d 42 27 e6 bf c7 1b 58 ef 0a dc e2 bf
       -0.692292267556572 -0.5893606829348464
000650 f7 b6 4a b4 ca 08 cc bf 3b 35 7e c0 5c 4f e8 bf
       -0.21901830485642623 -0.7596877822522069
000660 84 28 d4 6c 8d 7a 2f 3f 2a ad 45 e9 a7 45 c5 3f
       0.0002401635778500091 0.1661882294678006
000670 42 79 99 b9 e9 2a c0 bf a1 6c 31 b3 65 a1 c5 bf
       -0.12630960047222045 -0.1689879536596424
000680 7b 10 d1 bb a7 03 af bf 90 72 1f 51 1d 67 ec 3f
       -0.06057476203616915 0.8875872215681557
000690 c5 a7 e8 7f 94 87 dd bf ae c9 da ad c6 30 e3 bf
       -0.46140015116781924 -0.5997041125868259
0006a0 09 b7 67 d5 75 a0 72 3f 4c 27 de 65 8f 76 f2 bf
       0.004547558105043378 -1.1539453486643252
0006b0 8c fe 73 1c 0b 19 e6 3f 14 bc 81 ca fb 35 c6 bf
       0.6905570560192742 -0.1735224474718683
0006c0 b1 9a 19 8d 16 fd ec 3f 10 09 4f 29 5e d6 d0 3f
       0.905894542299242 0.2630839732556902
0006d0 bb 06 6f d6 f9 b9 d5 3f 14 99 cb 92 69 2f 86 bf
       0.33947606983938855 -0.01083261946901052
0006e0 9e 43 fb 02 f4 14 a8 3f c1 a5 f7 01 00 20 e5 bf
       0.04703486000437994 -0.6601562536645177
0006f0 13 90 75 e1 69 77 e2 bf d3 06 8b 1c d9 2c ed 3f
       -0.5770768550396518 0.9117246205789463
000700 2b 54 11 a7 34 49 b6 bf 19 60 43 3e 22 95 e2 bf
       -0.08705452994156875 -0.5807048050000986
000710 c8 37 3e 6a 7e e6 cd 3f e8 e5 40 4c 68 c6 f0 bf
       0.23359661281250355 -1.0484393099453602
000720 f5 73 e7 f5 b4 a3 e0 3f 0c 8e 7b b5 fd 92 51 bf
       0.51998374965808 -0.0010726430536401902
000730 18 6c eb 7c 41 2d e0 3f d1 0c 98 83 f9 0d da bf
       0.505524391158704 -0.4071029458138585
000740 18 8c 1a b7 34 18 eb 3f 2e 92 1c f0 8c 77 e9 3f
       0.8467048240894455 0.7958435716323657
000750 b7 ed c6 0a 5b 6d d5 bf c2 8c ba d5 8b 7f 7a 3f
       -0.3347995381588719 0.006469293813697154
000760 75 72 68 89 32 73 b2 bf 88 cb 5e db 00 48 df bf
       -0.07207027296721853 -0.4887697355545062
000770 d5 08 38 d8 02 b9 d6 3f eb 7f 96 ba 2f 19 e0 3f
       0.35504218211293664 0.5030745167059626
000780 99 40 2b 22 1e 75 8d 3f fd 91 d9 b8 0a 82 cc bf
       0.014383540551904427 -0.22271856332658038
000790 93 07 5e d9 91 b0 ab 3f 28 e7 01 5b 7a d4 ce bf
       0.05408149507913076 -0.2408593124744638
0007a0 f4 3b 5d f9 a6 55 f0 3f 8d 78 2d be d5 9f e0 3f
       1.0209111920155438 0.51951110023562
0007b0 40 84 4f db 75 4a c9 bf 91 65 8c ff c2 21 db bf
       -0.19758485039258922 -0.4239356513586126
0007c0 28 a2 02 86 eb 7f d3 3f 22 19 4b 9f 85 57 ce 3f
       0.3046826180166442 0.23704595830913272
0007d0 25 46 8b 0c 97 e6 a6 bf 06 cb 5a a3 52 ba c7 bf
       -0.04472801235318639 -0.1853736207609346
0007e0 13 7b 84 24 88 21 cd 3f 96 96 0f 8b 1a 4b b8 3f
       0.22758580954629135 0.09489599127808854
0007f0 e5 b2 6c 87 3c 9b ec bf a8 58 b3 64 d7 a7 dc 3f
       -0.8939497609149752 0.4477442248729724
