config/mnist/weights/config_weights.npy (npy, 627328 bytes, 1 tensors)

array f8 [100, 784]
00000000: 2ddf bb9c 32c6 33b8 f675 4dbf bb01 3238
00000010: d12a 7700 d45c edb7 fda5 fb5d bdeb 3a38
00000020: 8a58 e105 ee77 3a38 1aaf 87ed 1a0f 0638
00000030: c151 4498 f6ca 16b8 9b6e 7d8a 38c5 16b8
00000040: eb4b 0dfb 8b5c 3238 fa67 d450 1cd6 1bb8
00000050: eca3 79a9 a74c 3338 eebe b050 7954 1238
00000060: e772 5ca8 f7c1 1238 9947 d854 430e 3b38
00000070: 5cce 2a5e 8a4d 2fb8 b4fc ced9 0b56 c5b7
00000080: 12bf 0bf4 ceba 1f38 036b 0363 e551 31b8
00000090: 3c31 d02a 7756 3d38 d2b7 e858 d908 4238
000000a0: 73d3 5f3c 1c46 11b8 d9c1 f800 796c 0338
000000b0: 7547 544e 9802 43b8 8abc 2fc1 e44b f437
000000c0: 9c29 3d8d 634b 0d38 c9aa c0b6 a4bc 0638
000000d0: cb55 c6bd de26 27b8 6ce1 2441 ccc2 da37
000000e0: 49c3 4991 83b1 eb37 97b2 af99 dfcb 2038
000000f0: 96ea aed5 18fb 0cb8 340b f28f 9448 4038
00000100: 3371 87f1 8e7b 1bb8 f716 1a56 53ce 2d38
00000110: 743e 1439 ad27 2238 afc5 02a3 6a63 2d38
00000120: 9a69 fded 03a0 2938 3cc2 c773 6b1f 0c38
00000130: c1e4 a9a2 5f95 30b8 94d2 8033 b7a0 32b8
00000140: 206a 3c65 2d7d 30b8 4b92 2eba 6710 21b8
00000150: 9beb e72d 2a70 2738 cd1e 86d7 c89c fb37
00000160: becf bc02 6c4f 2b38 880f fd7b 7995 2db8
00000170: ae62 40c2 0af3 3fb8 5e1b af71 ccaa 4538
00000180: fe56 eb6b 809e 18b8 5aeb bb46 8976 3738
00000190: a35c b85b 2f90 1538 5b42 6ef9 63df 15b8
000001a0: e61c 0030 d9b0 12b8 c97d 883c d383 0d38
000001b0: 794d b631 329e 3138 198d 98e7 39aa 0ab8
000001c0: cbd1 bdbf 8c2f 2fb8 097d 8344 ab0d 22b8
000001d0: 51ea 31b7 c4a7 1438 e984 499e bcf6 00b8
000001e0: b137 d23d 09d0 2338 0978 3f23 7011 1338
000001f0: 405f d7ea c0d4 2eb8 16ae 2757 6f53 17b8
00000200: e35d 1135 634d f7b7 b94f fa05 1519 20b8
00000210: 2a53 d984 7662 2ab8 f37d c69b 9c1a 38b8
00000220: 52f9 166b 9d83 1fb8 f93a 3bae 6756 04b8
00000230: 627f b3ac 77b7 2ab8 5cdd c467 ed2d 0038
00000240: 5b9f 95d3 175b 36b8 0f75 2f9e ffb2 21b8
00000250: 2340 ed30 9b2c 1e38 8404 b037 1d76 21b8
00000260: 98aa 5f40 47c3 f537 8356 84f5 fd53 06b8
00000270: 3f42 f643 af22 1e38 2fc4 595e 0256 1e38
00000280: 86cf 3ddb 441a 3138 98ab c77e 0949 40b8
00000290: 3c7d e97f c5a0 3638 9369 13f9 590a b437
000002a0: 25a0 7dce 76a4 3ab8 00de 1444 7e97 4538
000002b0: 95da 4fa2 761a 2b38 bbb9 8815 c679 2638
000002c0: 5421 6f62 fe74 1db8 f313 685a 1ba0 f9b7
000002d0: c65c 3f6c 7571 37b8 f593 6c15 66be 3ab8
000002e0: e07c 2713 99f3 39b8 92aa 89dd 1e03 2238
000002f0: 0994 4cb7 bfd8 1eb8 eb56 7a7a 9579 4038
00000300: 3188 d75d 4ed1 03b8 af47 3772 ceba c7be
00000310: 1002 4084 fc79 dbbe e361 ab8d c0d7 2b38
00000320: f754 6bf4 19e1 4438 7727 d780 22a9 13b8
00000330: 467f f237 629d 1838 f6d6 64d6 8b1a 27b8
00000340: 4853 1bc6 c8fc 0bb8 875a 5aa8 f375 3e38
00000350: 6059 7a3f 119b 35b8 4031 736a 01ac 2238
00000360: 672a 3461 0d7e 2038 9a18 4865 6728 0cb8
00000370: 0779 d861 10a6 41b8 0160 2fa8 6d00 1538
00000380: 60d0 3ff0 4488 35b8 1c19 b5aa 92b0 32b8
00000390: eefa 54d1 53b4 25b8 25b0 963a 2758 febe
000003a0: 5d81 a358 97d7 0cbf 4e72 87a0 2121 04bf
000003b0: 36cc 5bf5 e33e dfbe c2f3 e2c2 2351 f2b7
000003c0: 5238 369d d016 3438 824a 0ab4 5c35 e1b7
000003d0: 322c 52ab 97e6 08bf 2288 c53f d862 40bf
000003e0: ed33 792d 6605 62bf 7401 19c1 4fef 6dbf
000003f0: cc00 ed4c a6b9 60bf 5f6e 1ea0 9e8e 4bbf
00000400: 8b3b 6649 bc58 23bf 3b2f a699 279f dabe
00000410: 4c3b 3dfc ad45 12b8 cb94 c604 a567 fe37
00000420: c61a 4890 018b 2eb8 2234 babc 4235 2cb8
00000430: 421d cffa 0634 40b8 2bb0 e973 3f43 3a38
00000440: 9244 0653 6bc2 ebb7 f01e 91c5 446f 2938
00000450: bf27 c28b b622 b6b7 281a 374a b9b7 12b8
00000460: 0c88 c6e4 1381 2738 740c 7bac 23c0 f837
00000470: 883f c6cd 3b5b 05b8 71f4 eaae 63c8 06bf
00000480: 12ad dcf9 0f98 14bf 4c52 462f 8e88 21bf
00000490: 0195 cdc5 8644 1f3f d4a6 d353 a4b9 533f
000004a0: 1080 a719 db3c 3e3f 133a fc6c 0078 403f
000004b0: f4d7 0be5 c717 f83e f366 ca5a 2db4 51bf
000004c0: 950e 4869 4f30 6fbf 2a12 008f 42dd 80bf
000004d0: df5f 7686 2a82 80bf 1cb7 c229 5bd6 69bf
000004e0: 8fac ba84 049d 343f ab8b fe20 6a83 4c3f
000004f0: 7caf dc40 a223 583f e109 8277 4509 493f
00000500: ebc9 c019 6904 283f 3984 7f03 9ac4 d2be
00000510: e90e 7441 4bae 3038 64fe 8084 ce40 2638
00000520: 3ede 1ac2 0309 32b8 a21b 31e3 93a8 41b8
00000530: c303 d265 8287 4238 77a8 706e 650c 2b38
00000540: 671e d3f4 a3f4 25b8 8292 7412 df37 3738
00000550: 1f64 099b ea79 fabe 2d7b 9923 ba03 1abf
00000560: 927d 81c5 4c7e 563f d99a abc3 3d9f 6d3f
00000570: 9cd3 c677 d772 813f 1330 d8b8 6f10 8a3f
00000580: 05fe 3e67 a10d 8d3f 647f 9696 26cd 8b3f
00000590: c784 7f9e c648 8c3f 048c 642b b5fa 863f
000005a0: 960c 5950 5166 7a3f 12fb 252a 9741 4a3f
000005b0: 69c9 61ed 217f 623f 4655 7697 a632 853f
000005c0: 67c1 ab32 7ced 903f e1e3 375a 01be 8d3f
000005d0: 1003 3c84 5992 823f fb74 e3e3 a4d2 703f
000005e0: b4ce c217 8101 3d3f 5d1e e1cf a088 fbbe
000005f0: 36f1 60b9 ac4c 03bf 3c69 8c54 7219 113f
00000600: ff9a 31a8 1f64 1038 0f44 ce9a 6c31 4738
00000610: d84b 10b0 c2c6 21b8 f325 9db3 ba9f f337
00000620: afe6 c5da 2260 ef3e 08aa 4154 bd92 0fbf
00000630: 252e 1b05 4030 253f b7b8 a447 be83 563f
00000640: 3904 5eee a469 813f 31f4 dd9c 3ef4 913f
00000650: e1e0 4a4a 187f a03f 9db7 c37e 8488 a83f
00000660: 38db d45f 4b65 ae3f e5a9 dcd9 631c b23f
00000670: d2a6 560b 1924 b33f e76f 7081 3732 b33f
00000680: 2c9e 4aa5 56bc b23f cf60 a612 8e48 b13f
00000690: 3edc 8eea 7c47 b13f eeee c5e7 b04a b33f
000006a0: caa0 7729 5022 b43f cfce 5865 a4e5 b13f
000006b0: fe60 5bf3 a950 a63f a486 f2d1 b996 913f
000006c0: 3c88 971b 1d92 673f 6f5d e27f decb 183f
000006d0: 432a 099e 2976 ecbe f79a 3f4d 7cf7 f03e
000006e0: 6756 ec6f f2d2 4cbd c017 9a8d 02b6 4cbd
000006f0: f48e 86c6 2235 f8b7 3b00 c6c0 1099 3d38
00000700: f4b7 38fc 4ee0 0f3f a4e7 7f39 07ee 17bf
00000710: 69f9 91bd 7f9d 443f af0c 96d3 44cb 663f
00000720: 8d73 cf7a 9d26 8f3f 10b4 fcc4 12c9 a13f
00000730: 7ed7 ee20 0214 af3f abe9 7d91 d669 b53f
00000740: 8087 2e60 b72e bb3f eae1 b0e8 1152 bf3f
00000750: d53e 5c98 e315 c03f 7ab4 72e8 473d c03f
00000760: 823e b072 6d78 bf3f 7608 f9fd f507 be3f
00000770: 1784 d816 89e7 bd3f 8158 f568 8ba0 be3f
00000780: 5a3a 2332 ec77 bf3f adf5 c56b e669 bc3f
00000790: f6e3 3861 15b1 b23f 2c76 4a78 9a2d 9f3f
000007a0: 9214 4a89 0390 773f 7dc1 7d69 2219 403f
000007b0: 4b21 c7e1 7509 13bf 6033 93c0 abd7 f7be
000007c0: 47b2 5405 b929 6dbe 5d78 ab00 a032 2fbd
000007d0: 771b d07b 35a5 2738 ef1f 5595 fb72 0338
000007e0: 4720 dfbb cab1 e43e 265b f9a9 9fac 26bf
000007f0: 43ca d65a 5d8a 493f 0ad1 836c 7c46 6e3f
-5.8111179725379e-38 5.291714410303486e-38 -2.6965298478360083e-39 7.911329201848138e-38 7.778385912790254e-38 8.103198542143765e-39 -1.674552331653577e-38 -1.6729043443296755e-38
5.395963094322634e-38 -2.0450934481118385e-38 5.671593710221267e-38 1.3466739614558688e-38 1.3780970621350078e-38 7.950960004430684e-38 -4.599546673390624e-38 -4.8985325320918065e-40
2.331131689537944e-38 -5.089863036710065e-38 8.62159156621343e-38 1.0599765494642492e-37 -1.2690834160014738e-38 7.1351483575065e-39 -1.1173154034830956e-37 3.7278708143862084e-39
1.0761095283045817e-38 8.352213685080956e-39 -3.401856592235259e-38 1.228801604256872e-39 2.5432383976614893e-39 2.4680063166896134e-38 -1.0645882109498992e-38 9.570591052332715e-38
-2.0191062310236239e-38 4.379592069560758e-38 2.667635570858734e-38 4.31822932286575e-38 3.7652641530532124e-38 1.033066067893251e-38 -4.873449858870543e-38 -5.474217073539154e-38
-4.845673926287917e-38 -2.50734160970282e-38 3.443925675230983e-38 5.071604182338874e-39 4.012879378603598e-38 -4.346961204816366e-38 -9.389079782557693e-38 1.2734825060211267e-37
-1.8087292680090112e-38 6.89516544230207e-38 1.5842153991954954e-38 -1.6069462719491547e-38 -1.373184143172076e-38 1.0842077356820466e-38 5.177451174430008e-38 -9.795154204009729e-39
-4.5823328565828133e-38 -2.6527079187230716e-38 1.5175151139059123e-38 -6.231521684657455e-39 2.911205948343081e-38 1.400904013029962e-38 -4.5302183836483387e-38 -1.7137177780834236e-38
-4.2799556519888946e-39 -2.3653851339017405e-38 -3.876871610225487e-38 -7.083514897975611e-38 -2.3152919329971375e-38 -7.470824790414982e-39 -3.925661808667455e-38 5.943374290343957e-39
-6.569788648131556e-38 -2.600665600152383e-38 2.2168532637761939e-38 -2.565719681880779e-38 3.9971961664360866e-39 -8.202046310693363e-39 2.2140059086528744e-38 2.2287353526287316e-38
5.026006290075708e-38 -9.571639743272333e-38 6.649775540927765e-38 2.3005291577357604e-40 -7.829508794708075e-38 1.2690502073775038e-37 3.982482688847564e-38 3.3025041786822625e-38
-2.1641590531192324e-38 -4.706645837952919e-39 -6.889336697784717e-38 -7.859280342808906e-38 -7.626476423457578e-38 2.6466534074826556e-38 -2.2662557887812656e-38 9.68309775137374e-38
-7.279837259965095e-39 -2.828802182477386e-06 -6.550910317316031e-06 4.091129101633262e-38 1.2271750944474392e-37 -1.4444388425278821e-38 1.8084084233318046e-38 -3.394783053204778e-38
-1.0280961227560818e-38 8.951609642893098e-38 -6.349353958153584e-38 2.7435886220986543e-38 2.423339153198904e-38 -1.034355230735147e-38 -1.0372966211779965e-37 1.5429592651724178e-38
-6.327774816093153e-38 -5.492420347040877e-38 -3.1891755298757166e-38 -2.893862589352382e-05 -5.501204130254026e-05 -3.8393820492397924e-05 -7.449547259719008e-06 -3.3642927360410866e-39
5.903661973570859e-38 -1.5803461572165547e-39 -4.749441488013268e-05 -0.0005000644592139151 -0.0021998401314591216 -0.0036541516972478597 -0.0020416496330711627 -0.0008409761942291364
-0.00014760301992252883 -6.347107410663827e-06 -1.342428217811553e-38 5.5844911260700846e-39 -4.487889408583792e-38 -4.1448003659941543e-38 -9.52340354790279e-38 7.717910040503729e-38
-2.5493028765949296e-39 3.7372849133656933e-38 -2.541042023303154e-40 -1.3751572862059755e-38 3.45363323050712e-38 4.5459570389699604e-39 -7.845095485298492e-39 -4.345468720632566e-05
-7.855985174092344e-05 -0.0001337693753497175 0.00011927673899732664 0.0012039284477460182 0.0004613909638049316 0.0005025865629891289 2.2976774121517788e-05 -0.001080555240298539
-0.0038072157860840707 -0.008234519948026781 -0.0080607721600216 -0.003153970768912452 0.00031453476251881105 0.000870158024543923 0.0014733395104924154 0.0007640446847435
0.00018323691335948798 -4.4746339469002025e-06 4.902057065560248e-38 3.2698066916826157e-38 -5.300072924470494e-38 -1.0378737366537232e-37 1.0890563404274326e-37 3.9744085133157876e-38
-3.226089405391761e-38 6.823229710689269e-38 -2.5249706313654996e-05 -9.923766710915874e-05 0.0013728856775044635 0.0036159712156974386 0.008519824354928755 0.012726662472253769
0.014186154330558596 0.013574887724473413 0.013810683929423096 0.011220374476186741 0.00644523394800269 0.0008012760265926086 0.002257887138562943 0.01035051488615103
0.016530933945376882 0.014522562566513688 0.009068202350591942 0.004107135870268448 0.0004425945442207799 -2.6258186146570185e-05 -3.6810895082758246e-05 6.522903744291415e-05
1.2042284321038045e-38 1.363165751797404e-37 -2.61200842702203e-38 3.604349008764795e-39 1.4961019439086022e-05 -6.0221102587149826e-05 0.00016165524953347488 0.0013741834832888108
0.008502281689063295 0.01753328163566809 0.03221965700999064 0.04791654632013762 0.05936656517808675 0.07074569767852486 0.07476955916231567 0.07498499784600164
0.07318631682812143 0.06751335101432974 0.06749706961169097 0.07535844477200346 0.07864857685456453 0.06991031145372094 0.043584166485461026 0.017176536025209757
0.0028772896300646427 9.459062127558313e-05 -1.3571535363206553e-05 1.6180744594774883e-05 -2.0480692198600046e-13 -2.040037575860549e-13 -4.44622691239492e-39 8.698044553009202e-38
6.079903644394527e-05 -9.128493400103896e-05 0.0006291269047691675 0.0027824730174771032 0.015210371313452398 0.034737192674903494 0.060699526329172734 0.08364621212050476
0.10618158434092884 0.12234603815966918 0.12566800059766217 0.12687014436724892 0.12293132829676703 0.11730897379405456 0.11681420142896602 0.11963721573315135
0.1229236242681763 0.11099090701278298 0.0730145799979168 0.030447400657626897 0.005752576650256762 0.0004912775066099742 -7.262022012988649e-05 -2.273794601563865e-05
-5.432028219796662e-08 -5.541834359621147e-14 3.4743715285046133e-38 7.144489858875512e-39 9.86790643854608e-06 -0.0001729912664696017 0.0007794338068179491 0.0036957197336225977
