config/mnist/weights/config_weights_Epoch100.npy (npy, 627328 bytes, 1 tensors)

array f8 [100, 784]
000000 9b e5 5d c3 ae 52 02 2b 32 67 27 5d e0 7e ff 2a
       1.6361667317721596e-101 1.4062143077309614e-101
000010 9f 7c 49 92 23 82 c4 2a 4f 11 f7 28 c0 1e f4 aa
       1.144569897341522e-102 -8.983219940343295e-102
000020 c1 15 59 62 af 5e 02 ab 43 42 bc 64 96 11 f9 aa
       -1.6403533227827557e-101 -1.119265986010569e-101
000030 9c 0e bf 5f 4f 59 00 ab 8a c3 a3 f9 f1 86 0f ab
       -1.4598866641708818e-101 -2.81524310821193e-101
000040 fd 6b 2a 3a b0 ee 0e 2b ef d1 98 55 c0 1f f5 aa
       2.7621340888823396e-101 -9.431444638167186e-102
000050 3c 1a 01 f8 6e 76 e3 aa 38 91 cb 2e 3c a5 d9 2a
       -4.3448323334562406e-102 2.8625415525719558e-102
000060 98 1d 03 01 3a 72 e4 2a 09 27 3e 99 99 a7 fe 2a
       4.5644035199776655e-102 1.3686687996821142e-101
000070 43 32 c0 85 3a 21 8d 2a 36 9c a8 b7 16 de f3 aa
       1.0160825571497508e-103 -8.87044571023254e-102
000080 e6 a7 3a c4 5b 92 18 2b 3e c9 01 13 c1 67 fd aa
       4.388305914196234e-101 -1.3128857621784655e-101
000090 ed 33 0e 4b 95 e7 e2 2a 09 7b 7d ff 7a 8e 12 2b
       4.2202625654662135e-102 3.3140498470593383e-101
0000a0 64 86 d8 ca 95 43 e1 2a 73 37 4e 67 c0 1f fe 2a
       3.854011592261991e-102 1.3449760156909081e-101
0000b0 de b9 6b 4e 97 a8 fa aa e4 64 b0 34 c2 64 1c 2b
       -1.190249864164045e-101 5.070861480041917e-101
0000c0 d0 af 1a 9d e0 81 db aa 2c 53 3c bd be ad 08 2b
       -3.0703647903361203e-102 2.203705737935924e-101
0000d0 61 f2 dd 64 47 df 10 2b 76 d4 f2 bb e0 7e d8 aa
       3.0132332168813754e-101 -2.73419736299265e-102
0000e0 cc ad b3 ba 4f 75 11 ab 03 9b a4 9f b7 9d d0 aa
       -3.117899552367594e-101 -1.8546849124094385e-102
0000f0 55 c9 e9 c0 f3 8b 15 2b 13 93 61 50 63 91 24 ab
       3.848061384587214e-101 -7.346523476137908e-101
000100 dd 61 98 74 fb 34 d9 2a 2b c9 00 e9 99 3e d8 2a
       2.8135976201871654e-102 2.7061717710762106e-102
000110 d6 6f 10 b2 66 30 dc 2a c2 22 75 84 a7 49 ed aa
       3.1464597816768013e-102 -6.538180849658249e-102
000120 0d ba 0b f6 b0 4e dd aa 9f 61 ab 06 63 2f ee 2a
       -3.2712865846323047e-102 6.738514483194534e-102
000130 83 55 e7 d6 13 dd 09 ab 95 03 ba 73 75 4a 41 bf
       -2.3095117482985582e-101 -0.0005276750084278631
000140 80 d5 5e 13 96 16 51 bf d5 45 0e dc fe 18 3c bf
       -0.001042982633845696 -0.00042873594434763895
000150 e3 3e 4a 47 b4 ad eb ab 8c 22 81 37 5e 55 fa ab
       -4.049435286792711e-97 -7.705298663347368e-97
000160 5d 12 8a bf f1 27 ee ab eb d7 5c 30 fc 4c f9 aa
       -4.411899514671718e-97 -1.1296252926073383e-101
000170 de 4e a4 81 a5 0b f1 aa f0 e3 c1 75 c2 33 c4 ab
       -7.610462860547379e-102 -7.389070030266187e-98
000180 8e 6a ed 72 a6 a6 32 bf 0b 02 bd c6 65 62 50 bf
       -0.0002845913285704293 -0.001000022307337758
000190 ab 51 6a db 6c c2 15 bf 77 9c 56 bf 39 49 d7 aa
       -8.300580416637528e-05 -2.5991842917540902e-102
0001a0 06 65 ff 95 04 c6 e7 2a 41 39 30 1d c1 7d 10 ab
       5.3071912678308085e-102 -2.945197749635799e-101
0001b0 d9 ce 69 b9 a7 88 e3 2a 2a 13 b6 49 6f bd df 2a
       4.3607222067355914e-102 3.542812130709079e-102
0001c0 cb c5 8a 6b b9 87 a8 aa cd 2e 54 98 90 dd ec 2a
       -3.4225681745730273e-103 6.4439235086816495e-102
0001d0 41 ac fa 0d b4 e8 0e ab c5 6c 06 38 1d 5b 87 be
       -2.7600464314698427e-101 -1.7401512409924588e-07
0001e0 20 d2 09 19 87 df 3f bf ec 38 f3 df 34 a8 e3 2a
       -0.0004863457516315634 4.388235952812912e-102
0001f0 8d 5f 53 e5 ac 0e dc be 44 b0 93 b1 ed fe 40 bd
       -6.689387722157061e-06 -1.207625247262197e-13
000200 ae 72 d9 36 3f b4 23 bd 53 6d af 33 dc 93 11 ab
       -3.500149427713649e-14 -3.1392110776309194e-101
000210 04 9e 6e e7 4a 73 93 bc 1b 50 dd df 44 0a 3c bf
       -6.748199809648391e-17 -0.0004278581762851023
000220 39 01 72 15 e8 a2 56 bf 29 26 6d 89 f5 8f 0d 3f
       -0.0013816133921694242 5.6385689438953196e-05
000230 45 1c 49 9b 08 02 62 bf 4b a1 9a a0 3b 4e 63 bf
       -0.0021982353303289536 -0.002356640300451717
000240 0c b3 f7 ef b9 e4 5f bf b1 67 2e a5 04 a1 4f bf
       -0.0019466224474584152 -0.0009652397806008043
000250 67 bf 5e a2 1a 3a 3c bf 64 af b7 d1 f5 cd 43 bf
       -0.00043070936441846067 -0.0006043863572222472
000260 b2 44 d9 d6 61 5f 27 3f 6a f8 89 21 fc 67 65 bf
       0.00017831868483367746 -0.002613060420400483
000270 47 cd c8 a3 52 59 68 bf e1 28 c5 28 22 11 30 3f
       -0.0029722799356705384 0.00024516185728330585
000280 0e dd ea 99 1b b8 3f 3f e5 ec 54 18 c8 a1 0e ab
       0.00048399614199064265 -2.735308080537104e-101
000290 9f 83 99 7f ad 19 02 2b bd f8 c3 3c d3 c6 07 ab
       1.6162827205425882e-101 -2.1231580794586407e-101
0002a0 55 60 72 ea 0a 43 15 ab e0 9e 9a b8 db 78 d8 2a
       -3.797197941642926e-101 2.7315727342956522e-102
0002b0 9f b2 de a5 ee 0b 08 2b a5 4e 16 0e b4 e9 a0 be
       2.1472634604809943e-101 -5.040438077357435e-07
0002c0 2e 69 c8 12 f0 8c 86 be 72 2c 86 85 0a ea df be
       -1.6801460257858332e-07 -7.608943711888339e-06
0002d0 5f 60 05 c1 fd 73 21 bf b0 fd 05 35 c9 ec 3b bf
       -0.0001331565149580464 -0.00042610084803837
0002e0 c6 db 73 93 46 f2 f3 be 27 ed 87 af 71 ff 43 bc
       -1.9022359279720844e-05 -2.1681689056580766e-18
0002f0 39 20 44 c3 45 73 e1 bc 18 c4 8b f0 72 db 44 3f
       -1.9373706245065885e-15 0.0006365119198489281
000300 66 44 46 44 0d 9f 41 bf a2 79 11 1e ab e0 72 bf
       -0.000537759282950867 -0.00460879175906684
000310 ff 67 d9 38 89 67 7c bf 57 a7 48 15 cb 5a 81 bf
       -0.0069346771466260995 -0.008473955714254506
000320 44 dc 05 73 fa 28 83 bf 40 0b 94 1c 01 42 83 bf
       -0.009355503688068485 -0.009403237042084123
000330 4d 31 00 79 db 83 75 bf 37 ed 56 49 73 c8 18 3f
       -0.0052527020598172715 9.453967717025924e-05
000340 e6 41 99 11 64 ee 46 bf 2d 94 11 e5 87 ca 66 3f
       -0.000699805127803596 0.002782121104746091
000350 69 2c d6 4b bf 40 6f 3f db da 57 5d 22 03 74 3f
       0.0038150535826325005 0.004885801541141456
000360 46 4f 16 f8 33 e9 77 3f 06 d3 98 18 0c f4 35 3f
       0.005837634090671012 0.000334980919976233
000370 39 fa 1c b8 91 f0 40 be 9b f8 d9 c7 84 71 eb 2a
       -7.888173450909339e-09 6.126464280823902e-102
000380 ae 4e 4e 59 4c a5 f8 aa 23 2b ca c5 17 0a 0d ab
       -1.1003796895645514e-101 -2.593101320385121e-101
000390 b2 23 02 3a 59 08 10 2b 9c 1c 62 a2 34 9b 61 bd
       2.863292622212808e-101 -5.004003436916698e-13
0003a0 d6 f2 e9 24 6f 20 65 bd 2d 04 7d 8c 28 ee 29 bf
       -6.00456812828257e-13 -0.00019783253650909727
0003b0 f2 99 f5 65 4c 8a 4f bf d4 25 03 66 4c 8a 4f bf
       -0.0009625313795538755 -0.0009625313796501286
0003c0 a6 25 82 3b 7a 33 42 bf c3 e2 10 d6 d2 ec fb be
       -0.0005554529989392667 -2.6631443123844753e-05
0003d0 c1 79 01 e5 a7 21 14 3f 69 9a 43 5e f5 2d 50 3f
       7.67954563811518e-05 0.0009875198530210577
0003e0 3c f9 52 97 f1 05 66 bf 8d dc 0d db 69 a1 70 bf
       -0.0026883810592998308 -0.004060185908080116
0003f0 60 8f 07 68 7c 11 7e bf 49 f4 19 b4 29 1d 89 bf
       -0.007340894663204839 -0.012262655075796174
000400 77 56 e4 eb 33 8d 90 bf 9e 92 35 9e 4d 2a 93 bf
       -0.01616364600439232 -0.018716061383559628
000410 4a 89 f3 df 3e 44 88 bf ba b3 92 0a c7 9f 89 bf
       -0.011848918160869321 -0.012511782655872373
000420 e9 29 e2 69 f5 c0 8b bf 78 ae 72 95 a7 f6 76 3f
       -0.013551633161360281 0.005606321930070039
000430 ce 6b c1 11 96 7d 96 3f d8 54 11 59 c0 0e 93 3f
       0.021963448365891307 0.0186109594690905
000440 41 07 f1 47 82 be 7f 3f 11 3b 39 97 02 61 54 3f
       0.007750042829742843 0.0012438321399660982
000450 71 be a3 12 29 0a 13 be c3 8a 5a 43 1a 9d d8 aa
       -1.1082557740947097e-09 -2.747375797964236e-102
000460 3e f7 6d cc 91 2d e5 2a 30 7a af 05 82 5d 02 2b
       4.727772223448257e-102 1.6399427028993018e-101
000470 8b 77 cf d6 29 83 03 ad 1a b9 20 83 46 c4 78 bc
       -7.48343633176517e-92 -2.148168876380475e-17
000480 ac c0 1c 93 57 7f 97 af 2f a6 00 7b 20 ca 4f bf
       -1.9817164685398018e-79 -0.0009701403232657608
000490 5c 30 bf bd 2a ad 51 bf 45 e3 54 03 2d a1 52 bf
       -0.0010788838762776564 -0.0011370601253714735
0004a0 02 3f 7d 9b 4a 8b 4f bf 6c ba 77 e4 97 16 28 bf
       -0.0009626497548911042 -0.0001837788024512012
0004b0 89 26 60 be b3 f9 15 bf da c7 71 3f b4 63 51 bf
       -8.382949417309374e-05 -0.001061368964454071
0004c0 66 ab 39 95 4c 95 69 bf 89 22 82 3d 00 ca 73 bf
       -0.003122949195860358 -0.004831314981978204
0004d0 43 d3 c7 5e 04 55 7e bf 36 4a df 0f 47 6c 86 bf
       -0.0074052973472945064 -0.01094871060550871
0004e0 5d 4a a7 16 ed a1 95 bf 7f c4 01 9e 19 cf 92 bf
       -0.02112551165357456 -0.018368149060226543
0004f0 6a 6c a2 73 c9 13 97 bf e8 ec 48 11 9e 7c 92 bf
       -0.02253641861225867 -0.018053502850517683
000500 34 a5 c6 61 a0 43 82 3f 8f 4b 08 47 a1 8e 95 3f
       0.008918049796948858 0.021051902733300983
000510 28 92 0b 84 c3 7c 9c 3f c6 92 0e b7 04 c0 90 3f
       0.027819685873412464 0.016357492134960315
000520 dd a3 6a 15 d5 56 81 3f 00 a3 81 44 bc 0c 60 3f
       0.008466400829393034 0.001959197721636108
000530 d3 cc c4 ca 22 57 ff bd 1c aa a2 13 c3 56 26 ad
       -4.560624749106859e-10 -3.426994293693413e-91
000540 ff 1c e4 07 8c 60 f6 2a dd f8 9e db b3 fb 0e 2b
       9.990931680480129e-102 2.766673592772595e-101
000550 94 04 ae 9a 2c c9 e0 aa e7 4e ba 0c d1 cf c4 bc
       -3.747265601353554e-102 -5.776430332823396e-16
000560 1b 7e e4 74 01 e5 fb be 35 e3 5b d3 30 f9 4f bf
       -2.6602319217803894e-05 -0.0009757507711745996
000570 54 c4 ec 84 c7 6c 5e bf d1 ba 7e cc 7a e1 5b bf
       -0.0018569897108131799 -0.0017017077643505694
000580 9d 19 23 91 fc b5 54 bf e6 9d fd 96 b7 33 31 bf
       -0.0012640921091119147 -0.0002624819962790667
000590 3f b2 7e cd 9f fc 12 bf 3c a8 15 63 74 15 41 bf
       -7.242894514431721e-05 -0.0005213564201487285
0005a0 83 63 bb 33 4e 26 61 bf 08 45 d6 1a b7 ef 6d bf
       -0.0020934607872331048 -0.003654344202637664
0005b0 73 b4 32 a9 c9 c4 7b bf 47 11 d8 0f 5b 2c 95 bf
       -0.006779468286521528 -0.020677016107599113
0005c0 2f da 40 aa 05 db 9b bf 22 72 de 4c e1 4c 91 bf
       -0.0272026906170259 -0.01689483672781667
0005d0 ee 75 4f 8a e4 ba 91 3f ec 2a 60 36 8d 03 ae 3f
       0.017314501706882916 0.058620846641209784
0005e0 13 58 8f bd 43 78 b5 3f 85 0d 9b 0f e0 50 b4 3f
       0.08386634233406225 0.07935905819890905
0005f0 d4 e0 42 be cf 6e ac 3f b2 fe 71 4e 7e 56 91 3f
       0.0555329246284956 0.016931508577271166
000600 70 86 a8 13 e2 de 6a 3f 2a 43 92 ae c2 ce 54 3f
       0.0032801070749577874 0.0012699986639612229
000610 ce 76 12 56 52 ca 0a bf 33 c3 60 26 94 69 80 be
       -5.109847803306881e-05 -1.2228203444396724e-07
000620 cc 2d 5b e5 e4 2a 1a 2b 25 14 a7 e6 80 3f 6d be
       4.6733102539453237e-101 -5.44787582437868e-08
000630 d1 8b 71 f6 de b6 03 2b 97 67 5f 22 f2 0f 4a 3f
       1.7604095028420407e-101 0.0007953579231483207
000640 8d cc 15 f6 bb 6b 11 bf 92 9e ca 12 72 3d 4d bf
       -6.64552185492431e-05 -0.0008923346518558575
000650 1c d5 d0 80 da 6d 50 bf 92 5b 18 eb 74 87 4a bf
       -0.0010027536220723115 -0.0008096047296842648
000660 d0 48 f1 16 a7 c2 41 bf 54 8c e9 aa 91 0e 1e bf
       -0.0005420032374650278 -0.00011465801319725358
000670 b0 83 95 d4 70 44 32 bf 58 26 ed 19 86 0d 45 bf
       -0.00027873758934587444 -0.000642481307161445
000680 b0 8d 60 4b d2 4d 65 bf 6c 3d 2e a1 29 c3 7f bf
       -0.0026005847276040148 -0.007754480949088243
000690 3e 05 60 a9 c9 20 9f bf 24 f1 d1 00 79 51 a1 bf
       -0.030398512804827187 -0.03382471213351071
0006a0 a9 4b 1f 0d 4d a1 73 bf 06 49 6a 78 88 ed ae 3f
       -0.004792500478248232 0.06040598363792253
0006b0 46 6f 02 fb c1 2d ba 3f 97 9c 27 38 8c 64 bf 3f
       0.10226070764696002 0.12262798663106121
0006c0 2c 0e d0 c1 33 b4 be 3f 5a 28 e9 d7 27 89 ba 3f
       0.11993716699367302 0.10365532895335275
0006d0 f0 a4 ab 7b d1 f8 b2 3f eb 07 53 28 bd e5 a1 3f
       0.0741091658525368 0.03495589368095849
0006e0 71 96 a7 2a 98 4d 84 3f aa 5a a6 10 72 b3 62 bf
       0.009913624574390685 -0.002282831939008763
0006f0 dc dd 62 0d 2a cc 56 bf 23 94 79 6e e0 aa 32 bf
       -0.0013914499918835565 -0.00028484324727734623
000700 14 15 53 d5 48 0e 0a 2b c1 f6 4a 1d 07 a6 f6 2a
       2.3266757463273007e-101 1.011211038070786e-101
000710 02 ac 26 43 c2 4d 98 bc 98 7c ce 42 90 3f 36 3f
       -8.432055559890367e-17 0.0003394820403687742
000720 db 6a 7b e9 08 15 ed be c7 6a 6f 56 72 5b 25 bf
       -1.386745797964577e-05 -0.00016294260714640725
000730 08 a5 8d 64 1b c4 40 bf 07 35 95 30 14 3c 44 bf
       -0.0005116590265120966 -0.0006175135214704649
000740 da f1 2e b4 88 9e fb be 2d a9 7b 8c 43 df 25 bf
       -2.633979171283601e-05 -0.00016687106675956337
000750 0b ca 18 95 5d ba 44 bf 46 3a 33 e4 71 41 6b bf
       -0.0006325680680617241 -0.003327104992059379
000760 90 f5 e2 2e 3a 99 87 bf 38 a9 21 f8 e8 3b a4 bf
       -0.011522726589073412 -0.039519577302444764
000770 76 c4 94 3c 27 88 a3 bf 6b 60 e1 cc 49 fd 8f 3f
       -0.03814814199939402 0.015619827809288908
000780 3b 8d 80 67 38 20 b5 3f 46 7e 3e cc 52 9b bf 3f
       0.08252289320858079 0.12346379743984767
000790 65 c1 db 6b 7f 26 c1 3f 38 8c 6e 43 be 53 c1 3f
       0.13398735777401352 0.13536814014978105
0007a0 c2 9d 97 b1 88 fc bc 3f 8f d9 a5 29 66 ef b5 3f
       0.11322836242435755 0.08568418995660053
0007b0 a7 70 5f ea a8 18 b1 3f 00 a2 1a d0 5a 7d ab 3f
       0.0667825290869951 0.053690755751919284
0007c0 69 8f 74 ae 73 f3 7e 3f 29 8b b4 0d b5 56 79 bf
       0.007556392555929972 -0.006186206093192572
0007d0 df 63 6d 7c 9d c0 26 bf 9b 2e c6 4b d7 2b 00 2b
       -0.00017358705937445173 1.4440265090579577e-101
0007e0 4c fe 59 27 46 e6 0f 2b 48 7c a3 fb da e9 f2 aa
       2.848494952130251e-101 -8.444488029674065e-102
0007f0 02 ac 26 43 c2 4d 98 bc 53 c2 a9 50 69 48 11 ac
       -8.432055559890367e-17 -2.022818571707403e-96
