config/mnist/weights/config_weights_Epoch1_100hidden.npy (npy, 627328 bytes, 1 tensors)

array f8 [100, 784]
000000 ba 6d 29 b1 2d ec f1 3f 26 b2 cd d8 00 6d 90 bf
       1.1201607628234869 -0.016040814621577713
000010 59 e7 14 d8 8a 8e f3 3f 1d 69 dc 52 bc 8c d3 3f
       1.2223003807725574 0.3054648217381713
000020 17 00 0d d4 3a c1 f7 bf 9f 63 8f 50 e1 25 e2 bf
       -1.4846752436860748 -0.567124039978001
000030 99 98 0e d4 ab d7 e8 3f d3 b5 e6 ea 70 4f d5 3f
       0.7763270513285249 0.33297369899341084
000040 5f 8f a5 db 60 af dd 3f 7f c3 c3 54 4f 37 e9 bf
       0.4638292450892915 -0.7880016952095587
000050 f6 40 d4 20 8a 1b e4 bf ef 9d db c6 76 9b f0 3f
       -0.6283617631143261 1.037955071247662
000060 db 40 78 48 2e 04 c5 3f c1 f4 5f 53 3b a1 e0 bf
       0.16419008768617158 -0.5196816090025537
000070 97 0b cb 84 5d d1 d5 bf e5 da 61 3b 3e 0c c7 3f
       -0.3409036442573607 0.1800611295654654
000080 7f 3d d4 a6 71 4b f9 bf 1c 53 ce ea 79 84 a9 bf
       -1.5809189335594451 -0.049838838494144805
000090 1e 56 c8 6d 80 cc e2 3f 89 e4 71 5e 08 24 d4 bf
       0.5874635833922104 -0.3146992609322941
0000a0 ef 70 18 89 7d a3 88 bf bc 2f 8b 34 b8 8b b2 bf
       -0.012030583139726462 -0.07244445116810899
0000b0 ab 13 5d b0 2f 59 d9 bf 52 93 cf ed c9 af e8 3f
       -0.39606849883085243 0.7714585919135095
0000c0 4d 7e b2 a3 52 65 dd bf 62 a1 a4 44 b1 31 ca bf
       -0.45930925355967106 -0.20464149333680398
0000d0 a3 35 b3 9c 7b 88 b6 bf 7a 08 ae e8 57 43 e1 3f
       -0.08802006316837789 0.5394706291701958
0000e0 eb 6b e5 54 43 e9 e7 3f 3b 10 91 64 73 56 dd 3f
       0.7472244890335537 0.4584015352340917
0000f0 a7 a0 e9 4e 56 0d da bf 1d 19 3c 4e 64 b0 ec bf
       -0.4070640345221456 -0.8965322044394132
000100 35 67 17 78 dc 87 e5 bf 0a 32 a5 b6 36 dd e8 3f
       -0.6728346200500029 0.7770036284724153
000110 2b ba cf ab 2f b6 cd bf e7 d3 55 83 72 03 ef bf
       -0.23212238206129263 -0.9691708150045287
000120 7c 6d e7 1f 8a 3d f4 3f 56 b0 a5 c3 2d c2 f0 bf
       1.2650243040323792 -1.047406925436936
000130 22 66 69 5c ce f9 dc 3f 3d 89 7f 53 15 9a ef bf
       0.45274695419866096 -0.9875589972328168
000140 5b 95 6d 1d 02 d0 ba 3f a7 83 86 67 4a 49 eb bf
       0.10473645418604376 -0.8526966115933775
000150 33 1a de 2a da 76 a0 3f 93 bf f8 91 87 b0 e4 3f
       0.032156770451411985 0.6465490199097864
000160 e5 55 10 fe cb e4 e7 3f b7 f8 3d ea f6 8a 99 3f
       0.7466793024238397 0.024944170042993288
000170 a0 e3 df 9e 5c 6c ee bf 02 97 ff 06 b5 10 f4 bf
       -0.9507277586954963 -1.2540788911223335
000180 06 37 db e6 97 38 d3 bf 01 1f ba 02 d4 fa 8b 3f
       -0.3003291849571358 0.013662010510656854
000190 dc e0 6a 3e 48 4d d1 3f 98 45 9b 9c ba 51 f2 bf
       0.27034193129976614 -1.144953357452641
0001a0 65 5c 46 c0 8d 04 ce bf 25 f9 79 df 6b 0e c8 bf
       -0.23451396835727958 -0.187940105552067
0001b0 13 cb 6a 98 e3 b8 a0 bf 12 c7 d1 46 b0 54 d5 bf
       -0.032660591464624876 -0.33329398075066863
0001c0 e4 4d 99 94 7a 57 d0 bf 2b 5d bd 17 a3 d7 e3 bf
       -0.2553392840538591 -0.6200728858629295
0001d0 1a a4 57 bb 43 05 c6 bf 7f d3 05 1c 5f 1f e6 3f
       -0.17203566215110372 0.6913295314139843
0001e0 02 5d bd 3a d9 9e df bf 5d 2f ee 73 c1 e4 ad bf
       -0.4940703462247741 -0.05838589229742184
0001f0 98 ee f1 09 8f 6a da bf e9 de 87 c9 09 76 ea bf
       -0.4127538296813582 -0.8269089637896886
000200 b2 eb ff 12 49 e1 9e 3f a0 e4 92 30 df ce e0 bf
       0.0301562707754603 -0.5252529095370342
000210 f7 15 50 d9 f7 28 d5 3f 18 5d 8d 9c 15 54 d9 bf
       0.3306254980273872 -0.3957571057157607
000220 85 4f c6 8b f4 00 ed bf cd 11 a9 54 5d 77 e5 3f
       -0.906366608617177 0.6708208707355482
000230 a3 7c 2b 41 40 ea d4 bf 27 c8 e9 ba 89 5a e0 3f
       -0.32679754604573413 0.5110520029686584
000240 39 42 01 48 d5 e7 dc bf f8 60 46 07 0b 30 d3 3f
       -0.45164997131090306 0.29980731687966466
000250 78 fb f2 8d 31 b5 f3 bf e1 37 da f2 7a bd c7 bf
       -1.2317367119682938 -0.18546997888591846
000260 54 c4 21 53 ac 9b ec bf 7b 6e 9a 91 ed bf f0 bf
       -0.8940030692739449 -1.0468574226023566
000270 a1 29 ca 16 2f 15 e1 3f 35 61 67 61 d5 23 9e 3f
       0.5338359303580554 0.0294335690212801
000280 72 42 74 d0 ec fc df 3f 4f 73 b8 37 9b 2a d6 bf
       0.4998123202977133 -0.3463504833360291
000290 fb 50 3b 52 99 f0 bf 3f b7 d6 86 a3 27 0c d3 bf
       0.1247649980317113 -0.29761687249570506
0002a0 4d be a7 fe a1 a9 d9 bf 48 f5 dd cf 92 3e db bf
       -0.4009785639636661 -0.42569418239130075
0002b0 e5 b7 4e 6d a1 e1 e1 bf f8 62 29 59 3b 74 eb 3f
       -0.5587927946960433 0.8579384557188794
0002c0 bf f7 07 c4 62 a3 eb bf 17 78 21 ec 53 97 dd bf
       -0.8636945561154262 -0.4623613172497029
0002d0 cd b1 73 50 ef b2 e4 bf 61 3f 68 80 0e 04 bb 3f
       -0.646842629559211 0.10553064951841186
0002e0 6a 20 29 c0 87 4f ed bf 07 7a eb 38 76 4c cb bf
       -0.9159582856309616 -0.21327092913902865
0002f0 ac 65 57 78 cc e9 cf 3f 40 31 52 46 6a 57 d9 bf
       0.24932247043652234 -0.39596039645472914
000300 73 bc 1c 16 04 83 e1 bf 27 0e aa b4 58 67 b7 3f
       -0.547243159473409 0.09142069254635797
000310 b0 0f fd a3 2c 85 be 3f 18 b4 3b de 61 ff fb bf
       0.11921957973123543 -1.7498491936669378
000320 d0 a5 b2 9b 47 62 b1 3f 95 a4 0a 5a 9b 8a e9 bf
       0.06790587950913296 -0.7981697806000222
000330 a4 3c 19 81 6d 19 e0 bf 20 88 b5 81 de 71 e2 3f
       -0.5031039735275908 0.5764000447636626
000340 ac 74 39 2e 54 e7 d1 bf e3 ff db cf c1 be e1 3f
       -0.27974419130425576 0.5545357761147865
000350 d2 10 0f 6b 5a f0 d9 bf b0 53 2c 3c 33 2a f3 bf
       -0.40529499487844334 -1.197802767802596
000360 67 7e 6a 76 c3 be c8 3f 8d 33 ae 00 f5 27 f3 3f
       0.19332164079695532 1.197255137117483
000370 fd 52 2e 21 e7 51 e4 bf 8e 3b 30 6a ec c1 b0 3f
       -0.6349979065003876 0.06545903770914505
000380 b6 7f 41 0d 15 27 f4 3f a2 89 88 ef 0f ed e3 bf
       1.2595415609175524 -0.6226882627855057
000390 f9 fc f8 d7 23 4a f4 bf d0 50 15 dc 3e bc e5 bf
       -1.2681005894117432 -0.6792291925908334
0003a0 bf bc 9b e3 e9 1c e1 bf 3b 9d ab 67 2e c6 e3 3f
       -0.5347794957614481 0.6179420494853852
0003b0 95 16 70 28 53 f6 e7 3f 00 3d ec 54 ca 05 cc bf
       0.7488189496804859 -0.21892670771237732
0003c0 15 74 d2 e0 58 08 d7 3f 5b 1e d5 b6 a6 2e b5 bf
       0.3598844714668428 -0.08274309123691508
0003d0 05 62 6b 67 13 74 ec bf 66 77 38 b2 07 1d e1 bf
       -0.8891694087897696 -0.5347937088842911
0003e0 ce 3f f9 85 e6 c0 e8 bf b3 69 12 ac 7a 74 df 3f
       -0.7735474220917185 0.4914843254461189
0003f0 2c 8e e3 ac 8d 68 d1 3f 6f 40 8d 0d db aa cd bf
       0.2720064342849777 -0.2317766014261937
000400 e8 bd 80 9c 4e 67 d0 3f fb 4e f9 b4 d6 33 f1 3f
       0.2563053634976016 1.075155932358881
000410 35 c4 c5 6e 8c b9 c6 3f 5a f4 d7 b5 4e b9 b8 bf
       0.17753749283613876 -0.09657756747761095
000420 2e d7 cb c5 08 c1 da 3f 9c 5e eb 96 36 1d ee bf
       0.4180318767169976 -0.9410660693783544
000430 85 cb d4 5f de 3f e5 3f 26 64 11 02 4b 46 e5 3f
       0.6640464660361977 0.6648306885136932
000440 20 ed 07 b9 a5 6e f3 3f 03 72 8b 12 67 cf f2 3f
       1.2145135143062546 1.1756354069140122
000450 98 e9 2c 07 65 47 e9 bf 23 d1 03 81 e8 11 d4 3f
       -0.7899651661057758 0.31359303092109964
000460 77 0a 29 da ae 13 cf bf 5e cb b6 84 9a d3 da 3f
       -0.2427881779895704 0.41916525802951365
000470 9c a2 0e f8 62 c1 b8 3f e9 3f 74 c6 3f d2 c5 bf
       0.09670084529956074 -0.17047879400388347
000480 34 50 b9 22 96 7f f0 3f fc 2e 9f f1 89 2a e7 3f
       1.0311490398789944 0.7239427298713674
000490 01 6c 4d 5e 9c 4d ee bf a0 58 bb 37 69 c1 d2 bf
       -0.9469739763111421 -0.29305487101135874
0004a0 34 75 e6 3c 06 3a e9 bf d6 60 1a 9e 58 ff e1 bf
       -0.7883330525834595 -0.5624201858472826
0004b0 62 61 a0 24 4f ec f2 bf d6 8e 2e 51 33 d2 c8 bf
       -1.1826926642152888 -0.19391480888326978
0004c0 37 e5 95 55 ad b4 c3 bf b4 9f 8e 94 f9 81 dc bf
       -0.1539513271234598 -0.44543303973704984
0004d0 ca f5 73 4d bd ac d2 bf 98 b5 6c 3a df 40 e3 3f
       -0.2917931801201489 0.6016689435106626
0004e0 dc 59 60 7f f5 1b e1 bf 2a 34 07 a5 59 da eb bf
       -0.5346629607982396 -0.870404074020944
0004f0 95 c3 45 79 ed 1c c2 3f ac 6d 8f 0a 20 a2 e5 3f
       0.14150780126103926 0.676040669084093
000500 22 ea aa ac 33 3d f3 3f ee 41 26 8d 24 7d e4 3f
       1.2024418587522026 0.6402762181115216
000510 db 04 b2 cc 3e f3 f4 3f aa bd 37 0e ba 6d c6 bf
       1.309386062232355 -0.17522359556413153
000520 77 b2 a5 00 f3 ca e4 bf 7f db 08 81 49 6f e4 3f
       -0.6497740757600486 0.6385848541457192
000530 5d 8e b0 9f 17 20 f1 bf 6d 30 52 9b f5 26 a4 3f
       -1.0703350293996643 0.03935973664292267
000540 88 1c 72 ba 7e e7 eb bf 16 b1 c0 50 db a4 e3 3f
       -0.8720086709517014 0.6138741090012754
000550 d0 e6 26 15 18 63 e4 bf 06 8b f1 0b d4 c7 c0 bf
       -0.6370964444278915 -0.1310982759778982
000560 11 3b f6 e0 02 e6 f1 3f 3b bc 5b 83 c6 a8 e1 bf
       1.1186550891467884 -0.5518524709313007
000570 e9 b7 29 f4 90 f6 d4 bf df 77 08 14 8e 85 e1 3f
       -0.3275492081073695 0.5475530997534824
000580 e4 c9 fb 07 7b fb aa 3f a7 41 e1 34 c3 cd de 3f
       0.052699894642404904 0.4813087479024269
000590 80 d1 1f 36 92 4e b7 bf c5 dc 69 fe 9d 36 ec bf
       -0.0910426504268056 -0.881667134190956
0005a0 31 17 e0 c7 c5 47 ed bf b0 6a 72 4b ed 44 b5 bf
       -0.9150113014045244 -0.08308299152342147
0005b0 21 82 97 6a 56 fb b8 3f 7f 35 83 a3 f1 bc e4 3f
       0.09758510687198242 0.6480644410709572
0005c0 64 d5 c2 63 50 43 e6 bf ca 61 8c ab 41 42 ea bf
       -0.6957170437296267 -0.8205879545740171
0005d0 57 56 f4 6a 23 19 d3 3f 64 a8 9e 0a f9 09 ec bf
       0.29840932316560526 -0.8762173850457313
0005e0 c0 96 79 76 75 11 e7 bf 7d 4d 0d a1 25 b7 c1 3f
       -0.7208812059368128 0.13840170253625309
0005f0 b7 14 a6 d6 8f a9 d4 bf a8 bc 88 28 93 20 ee bf
       -0.32284923517029135 -0.941476420562954
000600 c0 e7 9a 0b af e9 dd bf 31 b6 a4 b2 c9 c8 e2 3f
       -0.4673879254656832 0.5870102395180706
000610 de 67 93 2e 2d 11 ea bf 55 68 19 ee 34 85 f4 bf
       -0.8145967397388139 -1.2825211811782726
000620 31 6b 66 54 57 63 a9 bf a5 4a c8 35 bb cf c2 bf
       -0.04958603768610315 -0.14696445585339749
000630 00 2d 0f 72 52 cd eb bf f3 2d d0 c1 13 01 e0 3f
       -0.868813727161438 0.5001314912237248
000640 d0 a9 3b 3e 8d 97 bb 3f bd a9 11 8a 61 d9 c3 bf
       0.10778124589311422 -0.15507144204759796
000650 6e ac 7f 0e a6 af f4 3f fe 27 a0 4e aa 76 c8 bf
       1.2928829733234823 -0.1911213764108765
000660 79 03 c2 65 a6 5f f3 bf 62 52 29 ae 5b f2 c2 bf
       -1.2108520483891125 -0.14802118305182704
000670 c9 5a 56 2e 61 25 b4 bf 13 0a 22 fa 0d 23 ec 3f
       -0.0786953676346044 0.8792791257295128
000680 cb 6d ca 90 5b e6 d3 bf da b0 61 ef f6 b7 d6 3f
       -0.31093491687508096 0.3549783075057015
000690 41 56 2f 8e d6 77 cb bf 0c 8f 8c 1c 21 ae f0 3f
       -0.21459466879484704 1.0425120463559692
0006a0 1f 6f 3b 62 0b 19 e2 3f 2d a6 d1 30 72 ce f0 3f
       0.5655571859929046 1.050401869486801
0006b0 d8 64 33 2c 8f 6f bd 3f 31 82 c2 23 48 d6 c6 bf
       0.1149835093414312 -0.17841436143955172
0006c0 b8 0c 33 cc a5 19 f1 3f 37 fc 00 3c 3c 86 c3 bf
       1.0687616325892986 -0.15253403596759238
0006d0 ec 89 2d 41 47 87 b4 bf 6e 23 81 5f a0 96 c9 3f
       -0.08018918362862565 0.1999092546778018
0006e0 95 cc 9e 7b f5 2c d8 3f 5b 99 9b 47 6a cc ca 3f
       0.3777440745572645 0.2093632554671768
0006f0 3d a3 aa 82 a6 20 d4 bf 94 e6 65 39 a1 39 e0 bf
       -0.3144928241768417 -0.5070348855071694
000700 32 dc 70 46 fc d0 db bf a5 75 c0 eb a0 7f c6 3f
       -0.4346304595850966 0.17576991568868752
000710 6f f8 cf 90 ee 0c e3 3f d2 10 b4 98 56 d7 99 bf
       0.595328600727738 -0.025235512800478706
000720 1d ea 61 70 8b d0 c8 3f d5 10 2d 14 5b 29 d0 3f
       0.19386427867341718 0.252524156287348
000730 12 29 10 75 6e 33 e3 bf a2 16 82 2b d5 57 d6 3f
       -0.6000282560719674 0.3491108822712282
000740 04 c8 97 97 ef 03 ed 3f e9 6b bc 77 09 91 db bf
       0.9067304573820825 -0.4307273549363218
000750 db 09 80 e7 f4 be ee 3f 8d 93 1b 22 54 73 db 3f
       0.9608101388442337 0.4289141018946843
000760 24 cf 9c 62 84 f0 b6 3f 5a 4e 50 0f 32 31 d1 bf
       0.08960750014813051 -0.26862765784719544
000770 61 4e 55 24 04 d6 ef 3f 68 dc 8d f9 53 68 cd 3f
       0.9948750218995422 0.22974633870373684
000780 2c 41 4b c0 8b a5 d3 bf 9f 9c d5 2f 5d 23 f4 3f
       -0.306979120051454 1.2586337917835306
000790 12 ff c1 d3 3b 6a e4 3f 5b ae 2e ac 49 ef e0 bf
       0.6379679809469698 -0.529209934514664
0007a0 79 7e 30 06 60 0e b2 bf 85 ef 96 84 87 9f c9 3f
       -0.07053184653386237 0.20018094991780458
0007b0 1b c7 c3 12 f5 47 ac bf 5b c5 1c 32 52 0d f1 bf
       -0.055236490765208944 -1.0657522161021322
0007c0 1b 69 a1 93 90 9b b1 3f 59 d3 55 19 f8 34 81 3f
       0.06877997974644183 0.008401811860247287
0007d0 0f d9 1c e1 6b 7d 00 c0 9c d7 09 5f a8 72 cf 3f
       -2.061240919773929 0.24568657532261973
0007e0 46 0e cc 3e 12 50 ea 3f ad 42 be 8a e9 5a b0 bf
       0.8222743250375479 -0.06388721120152736
0007f0 f5 f1 39 2c 78 c5 f4 3f 9a fe d7 76 4c ac ad bf
       1.2982103087989547 -0.057955159671107384
